Pytorch/model/cifar_net.pth (torch_old, 428641 bytes, 10 tensors)

conv1.weight f4 [100, 3, 5, 5]
00000000: 43b8 e4bd 6226 1fbe 5183 633e d2ab af3c
00000010: fece aebe 296f 763e 6adb 793e ee22 f33e
00000020: 28db 1d3e af45 8cbd 41fb 3d3e a31a ab3d
00000030: becb 51be 69ca d83d b877 67be 5d1f f03c
00000040: fa38 f3bd c538 fbbe 8318 1dbc 898c 053d
00000050: 445b 9d3e 6996 463c fc9f 0dbf c4a5 b23d
00000060: 89b8 fc3e 357f 26be 4e89 3ebe 1bb9 593e
00000070: 4808 54bd 2e27 aebe d632 c83d d907 ac3c
00000080: 7ca0 e03e cfa6 c03e 37f5 2abe 41be fc3c
00000090: 50a3 51bd 95c8 a93d fd89 c73d a7b9 a43c
000000a0: 42cb 0dbd c214 0cbd 9d0e 01bf e4fa 5f3d
000000b0: f990 bb3d 36f9 f23e 53bb d33e e145 f6be
000000c0: abba 263e 1054 073f 558f d8be 3650 b1be
000000d0: 22f1 b7bd 183c 54be 8e2c f8be c4ba 53be
000000e0: 910a 21be 0f3e 853e e164 533e 976a cebe
000000f0: cb08 a0bd ce60 94be 8804 97be 2570 4ebe
00000100: 4bf1 dcbe 9c45 483d 82fd 96bd 7ecd 0bbf
00000110: 1dba ffbd 320e abbc 857d 383f a0bd 043f
00000120: 0538 3abe ceb7 d53e affa 023f 5739 ccbe
00000130: 10a8 85be d890 38bc b2ac 683e 0296 953d
00000140: ae44 8abe ec04 fb3d 3a3d 423e aedf cc3e
00000150: 8557 b9bd cadf 58be f0f7 ac3d 28e8 b63e
00000160: 4fdc 443e 22e7 133e 0cdf dcbe 2caa b7be
00000170: 43fe 22bc 238d 1a3e ccdc 4c3d 8f66 0bbf
00000180: 16e6 97be cbd8 5cbe c189 0bbe b29e d6bc
00000190: adbc 9d3c 2213 b43d 32ae 3e3e 8386 8c3e
000001a0: a5d0 2c3e c8ca 773e 09b9 8a3e 19dc 3d3e
000001b0: 90d7 8e3e 40a1 813e 349d 473e b169 cd3e
000001c0: 60f6 393e 7f2a 833e c532 f73c c033 c73d
000001d0: 785c 28bc 505d 3c3e 4699 813e 0755 b93d
000001e0: c9e3 5bbc 3103 713e a7a5 623e ab1d 593e
000001f0: 0836 d93d c6a8 b7bd 78ef a3be 6816 08be
00000200: 8d56 1b3e 2ac5 cd3e f374 49be 1610 eebe
00000210: fb68 24bf fc29 10bf 38ed 8cbd 508d 0dbe
00000220: 1805 a6be 0221 37bf c575 58bf c054 fcbe
00000230: 2027 353e e3bf 96bd 7dcd 51be e49f eabe
00000240: cada efbe a839 453f ff4e 3a3f 656d eb3e
00000250: 77d6 ab3e e1db b13c 9a49 63be 9f53 e63e
00000260: e02f b6bd af30 56bf 46fc 903e 3c56 16be
00000270: 25b9 3fbc 9418 773f a934 9abf daa8 3c3d
00000280: b163 b7bd 6992 86bf 82d2 cf3f df32 613f
00000290: ea55 9ebf 760b e53e 01af c3be 16fb 83bf
000002a0: e929 c93f 444e 013e cd85 aabe 75a7 6e3f
000002b0: 934b 5bbf 4010 46be f3f1 233f ec4f 54be
000002c0: fb3b b43e 24e9 953d c558 51be 2d67 3f3f
000002d0: 921c 953d f2e2 67be f4a5 813f 1c0e 4abf
000002e0: 1fbc ea3e b8b2 3fbd e2c6 94bf 2148 bc3f
000002f0: ebb1 863f 8533 7abf 43e1 9c3e b1e6 21bf
00000300: ce77 c0bf f712 913f dc9e f83d ac5c f2be
00000310: 96dd 783f 39ba 96bf 5e0f 38bf 1569 a73e
00000320: 0c8b a8bd cd32 c13d 3b36 c0be 4bc3 25bf
00000330: 75e8 0f3f c964 a03e b153 70be e6df 0e3f
00000340: 3b53 c3bf 59a2 c9bd 3a04 c53e 2889 87bf
00000350: 03d1 9c3f 4fcd 0e3f c414 b4bf 10a6 163f
00000360: de45 3abe 09a4 87bf 84d3 a73f 195a 073e
00000370: 709a 6dbe 5621 943f fe18 35bf 6056 cfbe
00000380: 06e2 453f aeac 243d e1f6 9c3e 0992 123e
00000390: 37a6 47be 23d2 cc3d ab27 a83e f878 603e
000003a0: f8ac 53bf b386 8dbe ac01 e73e 9a22 753e
000003b0: 5238 87bf dbda 47bf 37d9 4b3f be4c 1e3f
000003c0: 2b91 38bf fa25 0bbf 4afe 493f 5a40 2b3f
000003d0: b319 73be 1dcc 9abe 77cd 243f 4cda 1b3f
000003e0: a2c5 073e 3a5f 22be d7cb bb3d dc0e e13e
000003f0: 760f 803e 27fa b9be 9c61 55be 3977 033f
-0.11167958 -0.15541986 0.22218062 0.021444235 -0.34142298 0.24065842 0.24400106 0.47487587
0.15415633 -0.068492286 0.18552877 0.0835469 -0.20487878 0.10585482 -0.22604263 0.02931183
-0.11876102 -0.4906675 -0.009588364 0.032604728 0.30733693 0.0121208215 -0.5532224 0.087230235
0.4935954 -0.16259463 -0.18607065 0.21262018 -0.05176571 -0.34014267 0.09775321 0.020999836
0.4387244 0.37627265 -0.16695105 0.030852439 -0.051181138 0.08290211 0.09743116 0.020108057
-0.03461767 -0.034199484 -0.50412923 0.054682627 0.09158511 0.47455758 0.41353855 -0.48100188
0.16282146 0.52862644 -0.42296854 -0.3463151 -0.08981539 -0.20726049 -0.48471493 -0.20676714
-0.15726687 0.2602391 0.20643951 -0.40315697 -0.07814177 -0.28980106 -0.29495645 -0.20159967
-0.43152842 0.04889451 -0.073725715 -0.5461043 -0.1248667 -0.020880792 0.7206653 0.51851845
-0.18185432 0.41741794 0.5116376 -0.39887497 -0.26104784 -0.011265002 0.22722128 0.07304002
-0.27005523 0.12256798 0.18968669 0.40014404 -0.09049896 -0.21179119 0.08445728 0.35723996
0.19224666 0.14443639 -0.4313892 -0.35872018 -0.009948316 0.15092902 0.050015256 -0.54453367
-0.2966773 -0.21567075 -0.13626768 -0.026198719 0.019255007 0.08792712 0.18621138 0.27446374
0.16876467 0.24198449 0.27094296 0.18540992 0.27898836 0.25318336 0.19493562 0.401197
0.18160391 0.2561836 0.030175576 0.097266674 -0.0102759525 0.18394971 0.2531225 0.09049421
-0.013421007 0.23536374 0.22133504 0.21202724 0.10606009 -0.08967738 -0.32018638 -0.13289797
0.15169735 0.40189487 -0.19673519 -0.46496648 -0.6422269 -0.56314063 -0.068811834 -0.13823438
-0.3242576 -0.7153474 -0.845547 -0.4928341 0.17690706 -0.07360818 -0.20488544 -0.45825112
-0.4684661 0.770411 0.7277679 0.459819 0.3356206 0.021711292 -0.22196046 0.44985673
-0.0889585 -0.83668035 0.2831747 -0.14681333 -0.011701857 0.9652188 -1.2047321 0.046059467
-0.089545615 -1.0513431 1.6236117 0.8796825 -1.2369969 0.44735307 -0.38219455 -1.0311
1.5715915 0.12627512 -0.33305207 0.9322427 -0.8566219 -0.19342136 0.6404106 -0.20733613
0.3520201 0.07319859 -0.20444019 0.7476681 0.0728084 -0.22645167 1.012877 -0.7892778
0.4584665 -0.0468013 -1.1623194 1.4709512 1.0523046 -0.9773486 0.3064061 -0.6324263
-1.5036561 1.1333913 0.12139675 -0.47336328 0.97213113 -1.1775581 -0.7189845 0.3269736
-0.08229646 0.094335176 -0.37541375 -0.6475112 0.56214076 0.31326893 -0.23469426 0.5581039
-1.5259775 -0.098454185 0.38479787 -1.0588732 1.2251285 0.55782026 -1.4068837 0.5884714
-0.18190715 -1.0596935 1.3111424 0.13217963 -0.23203444 1.1572673 -0.7074126 -0.40495586
0.7729801 0.040203743 0.30657104 0.1431352 -0.19497 0.10001018 0.32842764 0.21921146
-0.82685804 -0.2764183 0.45118463 0.2393898 -1.0564063 -0.7806832 0.7962832 0.6183585
-0.7209651 -0.5435482 0.7890364 0.6689507 -0.23740272 -0.3023385 0.64376014 0.6087997
0.13258985 -0.15856639 0.09169739 0.4395665 0.25011796 -0.36323664 -0.20838016 0.51353794

conv1.bias f4 [100]
00000000: 3388 c0bf 2ce7 c4bf 5373 65bf 4a17 75bf
00000010: f4d0 5bbf 856b 70bf 37d6 75bf 21b3 44bf
00000020: 86e9 49bf e9dc 81bf 7cde b1bf e411 8abf
00000030: 48a8 41bf d7cf ccbf e5a9 bebf b919 d2bf
00000040: c27e 31bf 0032 8dbf 1604 8cbf e001 03bf
00000050: 6471 0abf 7680 b8bf 72b2 89bf 8638 54bf
00000060: 75bc 47bf a63d 24bf 9bf1 c1bf faaa 10bf
00000070: 4cf7 35bf 1be8 78bf ebec b4bf 0b0e 87bf
00000080: 5b5d 42bf ad55 03c0 3db7 02c0 6c4b f2bf
00000090: 1f8e a3bf 9825 40bf 94df 95bf 7b97 68bf
000000a0: 805b 47bf be1a d0bf 965f f2bf a13c 2cbf
000000b0: f668 8bbf 7ebe b5bf 9931 aabf cac3 b9bf
000000c0: e435 20bf ea1d 22bf e2a6 36bf ebce 84bf
000000d0: 76ed 6dbf 4195 cdbf 2795 8fbf 93b3 c6bf
000000e0: c425 0ebf 25a6 acbf df52 75bf d8d3 4cbf
000000f0: bb20 39bf ab1a b2bf e834 45bf ed6c 8cbf
00000100: 4441 6cbf a500 7abf f5a3 80bf 1b9a 83bf
00000110: 0b2e c33d ca75 14c0 5e56 63bf cb88 33bf
00000120: f9ea f0bf 2a51 ccbf 1988 1bbf 980c 11bf
00000130: 4ac5 a9bf 4cbd 6ebf 3fce 3bbf 99ee e9bf
00000140: 290f dfbe 1a30 55bf 5291 d4bf f37f 34bf
00000150: 82ee 65bf e593 84bf be15 aabf 5692 cfbf
00000160: 2a4f aabf b3eb 8cbf 80d3 8ebf ca1f b9bf
00000170: 8e8a 5bbf 6fd0 92bf e80a 07c0 e64d 9ebf
00000180: 12d5 7abf 51bf 96bf 4d7e 70bf fc7d a9bf
-1.5041565 -1.5383048 -0.89629096 -0.9573866 -0.8586571 -0.9391406 -0.9602999 -0.7683583
-0.78871953 -1.0145541 -1.3896022 -1.078671 -0.756474 -1.6000928 -1.4895598 -1.64141
-0.6933404 -1.1030884 -1.0938747 -0.51174736 -0.5407927 -1.4414203 -1.0757582 -0.8289875
-0.7802194 -0.6415657 -1.5151857 -0.5651089 -0.7108047 -0.97229165 -1.4134802 -1.055116
-0.759237 -2.0521042 -2.042434 -1.8929267 -1.2777747 -0.75057364 -1.1708856 -0.9085614
-0.7787399 -1.6258161 -1.893542 -0.6728001 -1.0891407 -1.4198759 -1.3296386 -1.4512875
-0.6258223 -0.63326895 -0.7134839 -1.0375646 -0.9294046 -1.6061174 -1.1217393 -1.5523552
-0.55526376 -1.3488203 -0.95829576 -0.8001075 -0.7231557 -1.3914388 -0.77033854 -1.0970742
-0.9228709 -0.97657233 -1.0050036 -1.0281404 0.095302664 -2.3196893 -0.8880366 -0.70130605
-1.8821708 -1.5962269 -0.60754544 -0.5665984 -1.3263333 -0.93257594 -0.7336158 -1.8275939
-0.43566254 -0.8327652 -1.6606848 -0.70507735 -0.8981706 -1.0357634 -1.3287885 -1.6216533
-1.3305409 -1.100943 -1.1158295 -1.4462826 -0.8575829 -1.1469859 -2.1100407 -1.2367523
-0.9798137 -1.1777135 -0.9394272 -1.3241572

conv2.weight f4 [16, 100, 5, 5]
00000000: 2113 a6bd b715 9dbe d379 67bd b28b 903e
00000010: aa3c 4f3e e242 a8be 4d3e 88be 37ff bdbd
00000020: a2f0 993e 1847 f33e bf7c 41be 0e63 263d
00000030: 2fa4 adbd 5429 a13c 3ef7 7e3d 7ae7 043e
00000040: 4154 d9bd d619 8b3d 82d8 3e3d 860d db3d
00000050: 3480 1ebe 6620 6abc db17 253e 65f6 323e
00000060: 1675 c73d 5329 9f3c 6c20 34be 7382 88be
00000070: eccf 46be 9d82 fdbc e369 82bd 9180 70be
00000080: b447 74be db4a 42be f7cd 08be 707b 54bd
00000090: 5d27 bdbd bea5 17be 8ead a6bd 6a25 b7bb
000000a0: f449 393d fce2 afbd ca3d 0fbd 7b7d 18bd
000000b0: 7d1b 3fbd 4c18 7ebb 86f4 833d d72a b33d
000000c0: c2fe 413d 201e 76bd 095d 69bf f1cc 59bd
000000d0: 31ab 9d3e aa6a 0c3e c29a 02be c502 0fbf
000000e0: 11bf 913e fe63 2f3e 6287 5b3e b634 1bbe
000000f0: 33ef 34be 576a fd3d 31b1 3dbe ad13 3dbd
00000100: ad09 6abd b556 7bbe b6c7 9d3d 47d4 7abd
00000110: 4d11 f23e b3a5 393e 2b4e bcbc 9d1a 993e
00000120: c40f a93d 258b efbd 9253 07bf f69d 0c3f
00000130: 1541 483e ecfc 893d a5ad 633e 6732 38be
00000140: 8233 c93c f528 5cbc 1409 c53e 98d9 e1bd
00000150: adae 243e 4ca1 bfbe f69f 9e3e a835 8a3e
00000160: bc82 9fbe 5946 e1bd 0775 c2be 454e 8b3e
00000170: e141 233e 2425 dc3e 54dd 84bd 7a6c e73d
00000180: 0a80 29bf 430f be3e 5ace d03d 2f1f 8bbe
00000190: 1a5c 323d 4596 153e 1fab 86bd b70f f93d
000001a0: 772b cc3d 384e d23e 9d2a dc3d e032 38be
000001b0: dec8 61be 17cf 053f 13b8 9e3d 4f39 0f3e
000001c0: 6de9 45be 822b 8cbe 786d 583e b667 aa3e
000001d0: 9e7e b03d d2de 75bd 9fac bcbe f417 96bd
000001e0: 73ab 5abe 1c27 4e3e da36 803e 3902 a8be
000001f0: 1b71 92bd d6ff 1c3f 5584 0f3f ed54 d13e
00000200: c019 5b3e 655c 0abe df46 26be 5bd5 49be
00000210: a576 ccbd fc41 33be 09f8 0fbe db23 13bf
00000220: 7648 c8bd 98bd f338 ff4e 2bbd e823 8b3e
00000230: c745 e2bc 6734 72be 9ea3 12be dead 0b3e
00000240: f363 d43d a11d 7ebe 6b4a b7be 4540 53bc
00000250: 8c98 763d c930 9fbd ef82 003f 5aee 803e
00000260: 409c 333d 830a 9fbe 1303 6abc 7bc6 973c
00000270: e421 d33d fb3c 69be 31f1 13bd 739e 253e
00000280: 6285 a4be b74e babe 0591 f83d 9e29 aa3e
00000290: 955a 753d f51f cbbd e980 743e 7e54 9e3e
000002a0: ef50 61be 45a2 57bd f3ec 66be 14e6 913e
000002b0: 4113 83bc d5b8 14bd 5f87 663e f492 553e
000002c0: 1a4c 033d e836 203e 3c27 e33d 8e1d bcbb
000002d0: 9824 133c 45bb bfbc fa47 abbd 5df3 25be
000002e0: a5a3 d9bd 9c1d 5fbc c63c 40be c8b8 50be
000002f0: 1567 adbd 8eab 84bd 5695 7cbd d924 96be
00000300: c5cd 9fbd 9e0b 0bbe 714b 01bd f006 22bd
00000310: a9fa 2ebe f84c ba3c 2ddc 52bd deae 803c
00000320: f3a3 57bc b708 90be a495 f2be d53b 9abd
00000330: 1a03 a1bd 2f78 d13b a77f 20be bded 73be
00000340: 32d8 8b3d 2e17 5e3e b200 92bd eab8 653e
00000350: caef 613e 1149 9a3e 051d 71bd bb28 34be
00000360: 3c66 3f3e 1e62 eebd 0a1d 54be 6ca3 1bbd
00000370: a224 ce3d a47f c1bd 8ef9 0e3e 89c1 aebe
00000380: b48e 063f bb8b a8bd da1e 62be f753 fbbd
00000390: dae0 383d 8b53 623e 01c8 d5bc a7e9 56be
000003a0: 74f5 19bd da83 eebd 5f03 78bd a665 42be
000003b0: 978f 11bc 0563 713c eead 283e af13 683c
000003c0: 45c3 1a3e d09e 28bd 6f16 fbbc 5765 c33d
000003d0: 704c 68bb 4b1e cd3e fff4 30bd 91a2 f2bd
000003e0: eed0 31bc 67be 00bd c365 a2bc dd48 2a3b
000003f0: c565 dfbc c972 64be ca35 cf3d 08a7 02be
-0.08109117 -0.3068063 -0.056512665 0.2823158 0.20237985 -0.32863528 -0.26610032 -0.09277194
0.300664 0.47515178 -0.18895243 0.04062181 -0.08478581 0.019673027 0.062247507 0.12978926
-0.10611773 0.06792037 0.046593197 0.10695939 -0.15478593 -0.014289951 0.16122381 0.17476805
0.09739129 0.019428885 -0.17590493 -0.26662025 -0.19415253 -0.03094607 -0.063678525 -0.23486544
-0.23855478 -0.18973868 -0.1335982 -0.05187553 -0.092360236 -0.1480932 -0.08138572 -0.005589177
0.045236543 -0.08588216 -0.034971036 -0.037229043 -0.046657074 -0.0038771806 0.064431235 0.087484054
0.047362097 -0.060087323 -0.91157585 -0.053173963 0.3079467 0.13712564 -0.12754348 -0.558636
0.28466085 0.17127988 0.21438363 -0.15156826 -0.17669372 0.12373798 -0.18524624 -0.046161342
-0.057138134 -0.24544795 0.077041075 -0.0612376 0.47278824 0.18129615 -0.022986492 0.29903117
0.0825496 -0.116964616 -0.52861893 0.5492853 0.19556077 0.06737694 0.22234209 -0.17987977
0.024560694 -0.013437499 0.3848349 -0.11027831 0.16082259 -0.37427747 0.30981416 0.2699406
-0.3115443 -0.10999746 -0.3797991 0.27208152 0.159431 0.42997086 -0.064875275 0.11299987
-0.66211 0.3712102 0.101956084 -0.2717223 0.043544866 0.14608105 -0.065756075 0.121612005
0.09969228 0.410753 0.10750315 -0.17988157 -0.22049281 0.5226912 0.07749953 0.13986705
-0.19327326 -0.27376944 0.21135509 0.3328225 0.086179 -0.06002695 -0.3685045 -0.073287874
-0.21354465 0.20132107 0.25041848 -0.32814196 -0.071504794 0.61327875 0.560613 0.40885106
0.21396542 -0.13511808 -0.16237973 -0.19710295 -0.09983567 -0.1750564 -0.14059462 -0.57476586
-0.09779446 0.000116224575 -0.041823383 0.27175832 -0.027621163 -0.23652802 -0.14320228 0.13640544
0.10370626 -0.2481599 -0.35798964 -0.012893741 0.060204074 -0.07772977 0.5019979 0.25181848
0.043850183 -0.31062707 -0.0142829595 0.01852726 0.103091985 -0.22777168 -0.03611869 0.16173725
-0.32133013 -0.3638818 0.12137035 0.33234876 0.05990084 -0.09918205 0.238773 0.30923837
-0.2200353 -0.052644987 -0.22551326 0.28495848 -0.016000392 -0.036309082 0.22512577 0.2085684
0.032054998 0.15645945 0.11091468 -0.005740828 0.008980893 -0.023404727 -0.08363338 -0.16206117
-0.10626916 -0.013617899 -0.18773183 -0.20382988 -0.08466927 -0.06478034 -0.061665855 -0.29324988
-0.07802919 -0.1357865 -0.031566087 -0.039557397 -0.17087807 0.02274178 -0.051479507 0.015708383
-0.013161647 -0.2813165 -0.47379792 -0.07530943 -0.0786192 0.006392501 -0.15673696 -0.23821159
0.06828345 0.2168853 -0.07129039 0.2243382 0.22064129 0.3013387 -0.058865566 -0.17593662
0.18691343 -0.11639808 -0.20714203 -0.037997648 0.10065581 -0.09448174 0.13962385 -0.3413203
0.525615 -0.082297765 -0.22082081 -0.122718744 0.04513631 0.22102182 -0.026096346 -0.20987569
-0.037587598 -0.116462424 -0.06055009 -0.18984088 -0.008884332 0.014733081 0.16472599 0.014164849
0.15113552 -0.04116708 -0.030650346 0.095408134 -0.003544595 0.40062174 -0.043202396 -0.11847413
-0.010853035 -0.03143158 -0.019823914 0.0025983371 -0.027270207 -0.22309412 0.10117681 -0.1275903

conv2.bias f4 [16]
00000000: 6f68 c9be cf93 653f 647d a7bd 508b 2640
00000010: 9583 fdbe 942f 813f f367 6bbe 2c18 84bd
00000020: 05d8 143f 7587 743e bd3a 1fbf fcca 85be
00000030: 23df b83f 28bf 8e3f 3051 fbbf a366 21c0
-0.3933749 0.89678663 -0.08178213 2.602253 -0.49514452 1.0092645 -0.22988872 -0.06449923
0.5814212 0.23879798 -0.62199 -0.26131427 1.4443096 1.1152086 -1.9634151 -2.5218894

fc1.weight f4 [120, 400]
00000000: 39aa 393f 8a38 9f3d bbab 06bf 72c8 bebe
00000010: 73a0 4fbe 14bf 3e3e f346 12bd a0d4 babc
00000020: 6371 f73c e501 72bd aec8 ef3e 211c 233c
00000030: b471 333e 9f4b a53c 5792 33be c94d 8c3d
00000040: 783d 57be 4825 853e f470 c7bd 3798 093e
00000050: 0ab5 1fbe 1e6d dd3d 3049 34bd 1a5b 54bd
00000060: 7cc2 693e 61e5 25be 4f19 933d 54bb 5a3e
00000070: 69f3 043e 107d 703d ff1f 37bd 5244 933d
00000080: bf74 04be 3f18 243c 984c 023d d540 903d
00000090: 7c53 933e 0065 833e f700 1d3d de51 353c
000000a0: 0c45 313e f7dd 043c 86bb 4c3d 5bad adbe
000000b0: 03e8 47bd bbed b43d 5566 a2be a699 8a3d
000000c0: 5af2 c4be 8ab7 9dbd 5408 8abc 67e8 0abd
000000d0: acdb b83d 46df 0dbe 2c90 91bd 79de 7c3e
000000e0: a5c8 83be fe59 2d3d 5476 21bb 2457 0e3c
000000f0: b0af 8cbd 721f 5dbe 3d91 a1bd 453d 8bbc
00000100: 9453 c73d 46d9 f53e 1869 223d 569e 51bd
00000110: 5641 61bd 12a2 b83d 52c4 c13e 6a33 a23e
00000120: b8b2 83be 3819 09bd aed0 483c 8d68 f83d
00000130: 2d57 e9bc 8890 ebbd dc09 0d3e ac83 d7bd
00000140: 207f edbe 904b ed3d 8482 93bd 7f9c b9bd
00000150: bd3b 9dbd 4e9c 01be fdeb 64be 5233 95bd
00000160: 8bde 023e 25b1 b83d c051 d43d 34bf 9c3c
00000170: c341 183d eb27 343e 4230 a9bd 3bd4 71be
00000180: 0ddb 5f3e 4aff 583d de74 0e3e a138 09be
00000190: 17ec 07bd a6f9 b73d a75c 333d 2e00 16bd
000001a0: 0fc5 90bc fa96 833e b71e 113e c127 ff3d
000001b0: 43be 94be e82e 81bd 8b11 2bbe 681c efbc
000001c0: e3bf f03c 5514 d93d 351a 633d 155a fbbc
000001d0: d70a 913c 4bd5 423e 0302 30bd 7173 a7be
000001e0: b692 51be 596f 81bd 4e98 dfbd 0634 51be
000001f0: ad9f 8e3d 2bd6 ac3e 999f 51be 618f 56bd
00000200: 6844 3bbe 2938 06be df1d 1b3b 7021 c13c
00000210: 98e7 23be 79f2 503e c948 033d b47a 3dbe
00000220: 98be 1e3d af57 563d 1ac0 313d e4c2 29be
00000230: 9c1f 49be df21 1bbe 44cd 153d 80bc e13d
00000240: 7b28 a53d ccfd 8abd 4fe6 f2bc 5b28 4ebe
00000250: c81e d4bd 0ed9 ba3d 9a86 8bbe 30c3 60be
00000260: 0b59 663c b938 973e 7cbd 993e f548 cdbe
00000270: 4858 27be 81e3 00be 4277 8ebe 60f4 2abe
00000280: 007c 3a3e 59ac b9bd 70ea 463c d4a5 1cbe
00000290: a240 193e 08c6 623c b6ad b3bc efa3 26be
000002a0: 6a5a 14bd 2d2f 3d3e 20bc 05be c78d 4b3e
000002b0: acaf d2bd 156e a43e a306 413d 8eb7 0d3e
000002c0: 2d89 02bd 85a3 b3be 53df b8be 5ae4 61be
000002d0: 4fba b1bd 3cd4 79bd d717 c23d adfa c4bd
000002e0: c9da bfbd 25ec 9d3e 8b8a 9bbe a442 0e3d
000002f0: a485 5ebe d777 df3d 2993 a43d 9b48 b6bc
00000300: 8df3 9d3d cb99 27bd ba2e 43be fe58 0d3d
00000310: e1b4 a53d 6ee0 383e cb42 993d 08cc 4abc
00000320: 678a a3be 5f39 a03d 1aca 553e 3691 0a3e
00000330: f3d0 71be b889 3cbe 73cc 34bd 9771 ae3e
00000340: 4e9e 81be 7427 913d 1f6c 373d 5b5c 57bd
00000350: 1128 f0bd 2567 abbe 54bb 6d3e 08d4 933b
00000360: 3915 bf3d aae2 a6bc 3d3d 72be 503d 5e3e
00000370: 31e6 95bd 4b69 3bbe 913b 423e 1736 82be
00000380: e728 8dbc f19b 2cbe b278 153c 669b a83d
00000390: c6af 6b3c 9bff 86be 6d9d 843c d393 1ebe
000003a0: c5a0 a33d 69e3 0d3d b896 a5bd c5d2 09be
000003b0: 31ae 01bf 2548 72be 9596 b5be 4f34 b4bd
000003c0: e3bb ae3c b3b3 e6bd de84 babe 6f20 923d
000003d0: e7cf 42be 7b88 b63e dabe 00be 840b 163e
000003e0: d72f d23d ccfc 193c 7f3a a23e 9523 07be
000003f0: f3b7 d53d 743e c1bd 6455 a7bc 8daf 063e
0.72525364 0.07774456 -0.5260579 -0.37262303 -0.2027605 0.18627578 -0.035712194 -0.022806466
0.030205434 -0.059083838 0.46832794 0.009955437 0.17523843 0.02017766 -0.17536293 0.06850774
-0.21019542 0.26005006 -0.09738341 0.13436972 -0.15596405 0.10811828 -0.04401511 -0.051844694
0.22828096 -0.16200782 0.071825616 0.21360523 0.12983479 0.05871302 -0.04470825 0.071907654
-0.1293516 0.010015546 0.031811327 0.07043616 0.2877463 0.25662994 0.038331 0.011066882
0.17311496 0.008109561 0.049983524 -0.33921322 -0.048805248 0.08834406 -0.31718698 0.06767587
-0.3846615 -0.07701023 -0.016849674 -0.033913042 0.09026274 -0.13854703 -0.07107577 0.24694242
-0.25739017 0.04232215 -0.002463718 0.008687768 -0.06869447 -0.21594027 -0.0788903 -0.016996989
0.09732738 0.4801733 0.039651006 -0.05117639 -0.05499395 0.090152875 0.37845093 0.3167985
-0.2572229 -0.033471316 0.012256784 0.121293165 -0.028483951 -0.115021765 0.13773292 -0.10523161
-0.4638605 0.11586678 -0.07202628 -0.090630524 -0.0767741 -0.12657282 -0.22355647 -0.07285179
0.12780206 0.09018163 0.10367155 0.019134142 0.03717209 0.17593352 -0.082611576 -0.23616116
0.21860905 0.052977838 0.13911769 -0.13400508 -0.033184137 0.089831635 0.043789532 -0.036621265
-0.01767209 0.25701123 0.14171873 0.12458754 -0.29051408 -0.06307775 -0.16705911 -0.02918835
0.029388374 0.10599581 0.055444915 -0.030682603 0.017705364 0.19026677 -0.04297067 -0.32705262
-0.20466122 -0.06320066 -0.10917722 -0.20430002 0.069640495 0.33757147 -0.20471038 -0.05238283
-0.18287814 -0.13107361 0.0023668928 0.023575515 -0.16006315 0.20404996 0.032051835 -0.18503839
0.038755983 0.052329715 0.043396093 -0.16578251 -0.19640964 -0.1514964 0.03657271 0.11022282
0.08064362 -0.06786689 -0.029650835 -0.20132582 -0.103574336 0.09123431 -0.2725113 -0.21949458
0.014059315 0.29535463 0.30027378 -0.40094724 -0.1634227 -0.12586786 -0.27825361 -0.16694784
0.18211365 -0.09066076 0.012140855 -0.15297633 0.14966062 0.01384116 -0.021933418 -0.16273473
-0.036219038 0.18475027 -0.13060045 0.19878303 -0.10287413 0.32115236 0.04712547 0.13839552
-0.031869102 -0.35085693 -0.36107883 -0.22059765 -0.08678114 -0.060993418 0.09477203 -0.09618125
-0.09367902 0.30844226 -0.30379137 0.034731522 -0.21730667 0.109115295 0.08035881 -0.022251418
0.07712469 -0.040918153 -0.19060794 0.034508698 0.080911405 0.18054363 0.07483443 -0.012377746
-0.3194153 0.07823443 0.20877877 0.13531956 -0.23614864 -0.1841191 -0.04414029 0.34071037
-0.2531609 0.07087603 0.044780847 -0.05257831 -0.11726392 -0.3347713 0.23215991 0.00451136
0.0933022 -0.020371754 -0.23656173 0.21703076 -0.07319296 -0.18301885 0.18968035 -0.25431892
-0.017231418 -0.16856362 0.009123014 0.08232765 0.014385169 -0.26366886 0.016188348 -0.15486078
0.07989649 0.034640703 -0.08085388 -0.13459308 -0.5065642 -0.23660333 -0.35466447 -0.087990396
0.021329826 -0.11264744 -0.36429495 0.071350925 -0.19024621 0.35651 -0.12572804 0.1465283
0.10263031 0.00939865 0.31685254 -0.13197167 0.10435476 -0.0943574 -0.02042646 0.13152905

fc1.bias f4 [120]
00000000: 24a7 ccbd 597c f53d 8729 2a3e d040 4bbd
00000010: fb59 a53e 66bc 3abe 06f8 433c a71c 87bb
00000020: d108 673e f515 56bd c13d cdbd cab6 3ebe
00000030: bd8b fe3c 2634 70bd 5284 903d e16c 5abd
00000040: 5501 34be 0611 e53d af88 74be f06d 893e
00000050: b609 0cbe 59aa 2c3e aea0 2f3d e2a6 a53d
00000060: eae0 8a3e 9937 6f3e f4eb 81be c9b1 ab3e
00000070: 5114 7d3e c214 afbd 1d93 5ebe 47f9 52be
00000080: eea6 97bd f443 a73e 07c9 0a3f 38b0 c6bd
00000090: 1168 8a3d b718 293e f29c dd3c 6c0f d73d
000000a0: 2a30 bbbd 6293 9fbd 45f3 9cbd 60a1 303e
000000b0: 3f9b 56be 8e23 17bd 5cab 9e3e 9b09 23bd
000000c0: 687d 5d3a 945f ee3d 51bd 813d 1273 553e
000000d0: 631d 1fbe 3a16 ecbe a422 6cbd 9de5 1f3e
000000e0: ea00 22bc 3fba 0cbe 3fbf d73e 546c d3bd
000000f0: e396 80be 9ad7 4a3d f567 8cbe 0226 2a3e
00000100: 92ad 59bd fbc4 683e d695 ac3d 20c8 d23d
00000110: 5313 4a3e 48ca 04be dc71 92be 1490 26be
00000120: 421d 8d3e 5433 b93d 7625 4e3d 1090 e73e
00000130: fde0 423e 07ac 62bc f5d9 663d 89d3 e83e
00000140: 344b 76be 3d38 ac3d 022e 77be 729c 6c3e
00000150: be60 833d a181 27bd 34a3 9bbe 36d9 b3be
00000160: 7075 323d aa85 2d3d 6249 ddbd a1be eabd
00000170: 0bf1 433e b9a1 8e3c 049c b63e ec13 0ebd
00000180: 19b4 24be 2da6 953e ff3c 093e be59 26be
00000190: 6525 c8bd 741a d8bd fee1 363e 6935 cabe
000001a0: c95a e8bd a9f6 7c3c 443e c43e 1c39 b4bc
000001b0: b870 8fbe 1bfb 4cbe 3aa4 3cbc 522c 6e3e
000001c0: 6e41 923d 4a8e 12bd c990 4b3e 9d77 bb3e
000001d0: 4e9d ba3d 3f8a 183c 5ec6 3c3e b52b 0ebe
-0.09992817 0.11986608 0.16617404 -0.049622357 0.32295212 -0.18235931 0.011960989 -0.0041232887
0.22561957 -0.052267034 -0.10021544 -0.18624416 0.031072492 -0.058643483 0.07056488 -0.05332649
-0.17578633 0.111848876 -0.23880266 0.26841688 -0.1367558 0.16861857 0.042877845 0.08088471
0.2712472 0.23361053 -0.2537533 0.33534077 0.24714781 -0.08548881 -0.21735807 -0.20602904
-0.07404886 0.32669032 0.54212993 -0.0970158 0.0675813 0.16513334 0.027052376 0.10500988
-0.09140046 -0.07791783 -0.076635875 0.1724906 -0.20957659 -0.036899142 0.30990112 -0.039804082
0.0008449168 0.11639324 0.06334937 0.20844677 -0.15538554 -0.46110708 -0.057650223 0.15614934
-0.009887913 -0.13742922 0.42138097 -0.10323396 -0.25115117 0.04952202 -0.27423063 0.16616061
-0.053144045 0.22731392 0.084270164 0.10292077 0.19733934 -0.12967789 -0.28602493 -0.16265899
0.27561384 0.09042993 0.050328694 0.45227098 0.19031139 -0.01383496 0.056360204 0.4547389
-0.24052125 0.08409164 -0.24138644 0.23106554 0.064149365 -0.040895108 -0.30397952 -0.35126656
0.04356903 0.0423638 -0.10805012 -0.11462141 0.1913492 0.0174111 0.35665905 -0.034686968
-0.16084327 0.29228345 0.13402174 -0.16245171 -0.097727574 -0.105519205 0.17859647 -0.39493874
-0.11345441 0.015439668 0.38328755 -0.021999888 -0.28015685 -0.20017664 -0.011513764 0.23259094
0.07141386 -0.03578023 0.1987945 0.36614695 0.09112035 0.009310304 0.18435046 -0.1388386

fc2.weight f4 [84, 120]
00000000: 3c1f 0c3e 96e6 b3bc 245d a63d 396c 1ebd
00000010: 204d 8dbe 3be1 48be 062d b73d 54b1 84bc
00000020: 6d21 a8be 9877 5d3e 3f43 243e 09ed 77bd
00000030: cfb3 e8bd 473b a3be 0265 98bd 8f4b f0be
00000040: c834 de3d c8ba da3c 1d28 2d3c dd8b 11be
00000050: 1129 1abe f763 6c3e bbce 8fbe 0b3b 8abe
00000060: 94d8 593d 5f0e 97be fba2 22bc d0a8 0f3d
00000070: 900f 373d d3bb cc3c 34aa 90bd a40e 643d
00000080: 33ca 7abe 3d13 3cbd cf00 fa3d cfb8 2f3e
00000090: c10d 25bf 760b 58bd 8c04 c5bc 58cf 4a3e
000000a0: ab5f 723d 4994 51bd f5e6 493d 4f0e dbbd
000000b0: 6618 1d3e 6e35 36be 184b 433a c24e cfbd
000000c0: 757b dcbe d2da 25be 0e02 76be 3451 29bd
000000d0: 5c5b 7bbe b730 4c3e 686a 0e3e 7864 0b3d
000000e0: a68f 65be da9d d6bd d78e 733d 4cbd 0abe
000000f0: ac76 243c c23c 843c eb5b 83be d920 14be
00000100: 6bfb c5bd 309a b1be 11ab 6cbe c5b1 4b3e
00000110: e2f2 0a3e cc11 0abe f019 29be 6026 913d
00000120: 0f0a 66be c9b5 543b 23b1 b5bd 374f a53c
00000130: e396 d6be 01dc 55bb d7a8 603d ebb9 463d
00000140: fe7f 67be 690a cfbe 22ba 28bd c43a c2bd
00000150: 2042 45bd 87f2 bd3d aa03 9fbb 51f2 6cbe
00000160: 5a58 8dbd 7d31 98be 041a 953c 14b9 7c3d
00000170: 8abc 9fbd 4f7a 3d3e ab65 443c ce94 56bd
00000180: 2435 46be ab25 88be 9f49 0cbd 7717 a4be
00000190: d9d9 bcbd 3a29 76bd 2092 873d 557f ae3d
000001a0: 57cf a9be e1a7 57bd 5d4e 993c 0ea5 d73d
000001b0: fb5e abbe 66cb 833c 061a 203d 6393 4dbe
000001c0: 327e 36be 2f20 ddbc 115c 13be 74e9 b2be
000001d0: 1048 213e 0660 11be bbba af3c 561a e0be
000001e0: eebe ddbd 9a69 25bd d32f 93be c18c febd
000001f0: f608 1abe 3311 87be 9b63 a1be d852 863d
00000200: 4bd0 3e3e 968d b8bd be8e a53d a691 65be
00000210: 81b6 cabe e2cf 2a3e 425e dcbd 56d7 993d
00000220: 72af d03c 02c8 4cbe e439 833b f46b 11be
00000230: d064 523d 3106 b8be dc8f 24be 62c9 043e
00000240: 8afd 0ebc 1772 a53e deaf 863e d16b 29be
00000250: 42cf e8be 91e6 abbc 27d5 913d 365e 1e3e
00000260: acea 1cbf a5e3 8ebd c262 d8bd bbbc 0ebf
00000270: b49d b3bd d83e dbbb b370 153e 0993 3bbe
00000280: f689 8ebd 2caa df3b 6b84 91be 9c64 0dbd
00000290: a198 b5be f921 c4be c6a9 9dbc 0c83 443e
000002a0: a927 2cbe 7933 1cbe c484 a53e 2764 68be
000002b0: ff93 e3be 6643 39bd b93c 1ebe 4ecd 1bbd
000002c0: 5fe8 b03d abbe d3be 3f85 0cbe 5dfb 043c
000002d0: 94f3 14bd 2255 733e 4207 0e3e 7e7b 0bbe
000002e0: f3f4 533c a000 e1be a72c b3be d436 87be
000002f0: 07e9 a2be 991b 0ebd 6260 2fbe 9423 8ebe
00000300: 7802 1abe 1b74 32bd 40dc 7abe 66c3 2b3e
00000310: ffdd 00be 3f93 0dbe 07bc d9bd 8ed5 803d
00000320: 1cb2 a7be 3de5 2abe b600 aabe 1596 ea3d
00000330: 3262 1bbe 3bd9 5fbe 683b d0be 624e 0fbd
00000340: bfae 843d 84fb f83d a52f 21be 2bb3 083e
00000350: 9d67 2f3d 9527 80be f653 e1bd 6adb a73d
00000360: 759e bbbd 25fe bc3d be22 133c a58d d1bd
00000370: de5d 50be 12d7 aabc c731 033c eee9 8abe
00000380: 72f5 253c 2112 833d cb40 143e 1e54 20be
00000390: 8415 753e 94c2 59be b1c1 54be be36 393e
000003a0: 124e 17be a672 e2be 5cda 6f3e e661 2c3e
000003b0: 3ce7 55be 7181 05bd 8475 733b 004f 62be
000003c0: 0f20 08be 7057 f53d e624 b8be 0bfc 5abd
000003d0: c42b 80be 83af 693d 6c7c 693c 7b92 203d
000003e0: 7912 743e 62b1 95be ab9a 94bd 45d9 d53d
000003f0: e222 3d3e 8316 9f3d e60d 40be 8851 b23e
0.1368379 -0.021960538 0.08123234 -0.038677428 -0.27597904 -0.19617169 0.089441344 -0.016197838
-0.32838002 0.21627653 0.16041277 -0.06052879 -0.11362421 -0.31881163 -0.07441141 -0.46932647
0.10849911 0.026700392 0.010568646 -0.1421351 -0.15054728 0.23085009 -0.2808741 -0.2699817
0.05318506 -0.29503152 -0.009926553 0.0350731 0.044692576 0.024991905 -0.07063714 0.055678025
-0.24491195 -0.045916785 0.122071855 0.17160343 -0.6447411 -0.052745305 -0.02405002 0.19805658
0.059173267 -0.051166806 0.049292523 -0.106960885 0.15341339 -0.1779382 0.00074498495 -0.10122444
-0.4306294 -0.16196755 -0.24024221 -0.041337207 -0.2454657 0.19940458 0.13907778 0.03403136
-0.22418079 -0.104793265 0.059462395 -0.13548774 0.010038059 0.016142253 -0.25656065 -0.14465655
-0.09667095 -0.34687948 -0.23112132 0.19892032 0.13569215 -0.13483351 -0.165138 0.070873976
-0.22464775 0.0032456985 -0.08871677 0.020179374 -0.41911992 -0.0032632353 0.05484852 0.04851715
-0.22607419 -0.4043763 -0.041193135 -0.09483865 -0.048158765 0.09274774 -0.0048527317 -0.23139311
-0.06901617 -0.29725257 0.018200882 0.06169994 -0.07799633 0.18503688 0.01198713 -0.052388005
-0.19356209 -0.26591238 -0.034249898 -0.32049152 -0.09221239 -0.06009791 0.06619668 0.085203804
-0.33166 -0.052650336 0.018714124 0.105295286 -0.33470902 0.016088199 0.039087318 -0.20075755
-0.17821577 -0.026992885 -0.1439059 -0.34943736 0.15750146 -0.14196786 0.021451345 -0.43770093
-0.108274326 -0.040383913 -0.28747424 -0.124291904 -0.15042481 -0.2638031 -0.31521305 0.0655877
0.18634145 -0.090113804 0.080838665 -0.22418842 -0.39592364 0.16680863 -0.10760166 0.07511775
0.025474284 -0.19998172 0.004004704 -0.14201337 0.051365674 -0.35942224 -0.16070503 0.12967446
-0.008727441 0.32313606 0.2630605 -0.16545035 -0.45470625 -0.020983966 0.07120734 0.15465626
-0.6129558 -0.069770135 -0.105657116 -0.5575673 -0.08770314 -0.006690841 0.14593773 -0.18317808
-0.06959908 0.006825706 -0.2842134 -0.034519777 -0.3546801 -0.3830717 -0.019245993 0.19190615
-0.16812004 -0.1525401 0.32327855 -0.22694455 -0.4444885 -0.04523029 -0.15452851 -0.03803759
0.08638071 -0.41356406 -0.13722704 0.00811657 -0.036365107 0.23762944 0.13869956 -0.13621327
0.012936818 -0.4394579 -0.34995005 -0.26409018 -0.3181841 -0.034694288 -0.17126611 -0.2776152
-0.15040004 -0.043567758 -0.24498081 0.16773757 -0.12584685 -0.13825701 -0.106315665 0.06290732
-0.32753074 -0.1668901 -0.33203667 0.11454407 -0.15174177 -0.2186021 -0.40670323 -0.03498686
0.06478643 0.12157348 -0.15740831 0.13349597 0.042823423 -0.250302 -0.110023424 0.08196147
-0.09161083 0.09228162 0.008980451 -0.10232095 -0.20348307 -0.020854507 0.008007473 -0.271316
0.0101293195 0.06399942 0.14477842 -0.15657088 0.23933989 -0.21265632 -0.20777012 0.18087289
-0.14775875 -0.44228095 0.23423141 0.1683422 -0.2088899 -0.032594148 0.0037148902 -0.22100449
-0.1329348 0.11979568 -0.3596565 -0.053463023 -0.2503339 0.057052147 0.014250856 0.039202195
0.23835172 -0.29236895 -0.07256063 0.104418315 0.18470338 0.07767966 -0.18755302 0.34827828

fc2.bias f4 [84]
00000000: d471 a03f ab6a e73e e7b8 70be 2dd9 4fbe
00000010: 99d5 3f3d 2799 663e 7fbf d4bd 8c7a 353e
00000020: 7bc2 bebe 80ee 0b3d 3bbf 063f c545 3bbe
00000030: f8e7 d4be 3ec7 edbd 9c61 253e 626a 7fbd
00000040: 20fa 493e 84d7 fbbd 5956 8b3b c811 aa3d
00000050: 67f9 183f ac99 c03e 54d3 1bbd ad05 1cbe
00000060: 3280 cd3b 4eaa be3d 155f 083e 1869 303f
00000070: ba33 0c3f 12be 5c3e 084e 943f 858d 103e
00000080: bf0e a83d d58f d4bd e177 673f dd12 633e
00000090: 4859 863d 6558 dbbd 6306 52be f2b2 22bd
000000a0: c72e 81be 3b36 143f 29c9 df3e f96c 233e
000000b0: 92dd 0ebe 9cb9 713f 4caa 833f c330 b7bb
000000c0: 88c7 b33d ed5d 2bbe 9bf3 86bd 85d6 a2bd
000000d0: 9c87 043f eac5 ff3e 9ba6 933e 6239 90bd
000000e0: 73c5 053e ab89 dfbd 2994 d93e 3362 5e3e
000000f0: 68df 433f 260b 32be cf64 893e 5c2a 103f
00000100: 622f 303f e3c9 673e d10e a83e ffcf 123e
00000110: dc5f 1cbf fa23 d23d 2a1d 2c3e 170f 53bd
00000120: 35a6 0b3f 3dbd c33d 574b 6e3c 6470 0dbc
00000130: cc50 4ebe 0505 4c3f 0a6a 073f 75ee 6abd
00000140: 4746 4e3e 865d e73e c590 c93e 1d04 acbe
1.2534738 0.4519857 -0.23508035 -0.2029769 0.046834562 0.2251936 -0.103880875 0.17722529
-0.37257752 0.034163 0.52635545 -0.18288334 -0.41583228 -0.11610268 0.16150516 -0.062357314
0.19724321 -0.12296966 0.004252237 0.08304173 0.5975556 0.37617242 -0.038043335 -0.1523654
0.0062713856 0.09309827 0.13317521 0.6891036 0.5476643 0.21556881 1.1586313 0.14116485
0.082059376 -0.10378996 0.90417296 0.22175165 0.06559998 -0.10710219 -0.20510249 -0.039721437
-0.25231 0.5789525 0.4370816 0.15959539 -0.1395171 0.9442384 1.0286345 -0.0055905296
0.08778292 -0.16735049 -0.06589433 -0.079510726 0.51769423 0.49955684 0.28838047 -0.07042195
0.13063602 -0.1091493 0.4249585 0.21717148 0.76512766 -0.17387065 0.26834723 0.56314635
0.688223 0.22635607 0.32823804 0.14337157 -0.6108377 0.10260768 0.16808 -0.051528063
0.54550487 0.09557579 0.01454433 -0.008632753 -0.20148009 0.7969516 0.5289618 -0.057356317
0.20143996 0.4518854 0.39368263 -0.33596888

fc3.weight f4 [10, 84]
00000000: 4d22 28bc 56d0 9ebe 53e1 97bc 0de6 083e
00000010: 7bc0 08be babf 2b3e 3098 313e ec2f 07be
00000020: aa88 593e 518e be3d 6301 3fbe 1bd0 14bd
00000030: 33c6 3c3c 338c f83d b0da 423e 7352 e2bd
00000040: c66f 94bd 0d6b 823d 2226 3a3e abf7 4e3e
00000050: 2ee6 a3bd 8d7e 2dbd 09cf acbd bafd 83bd
00000060: 0a5f 6d3e 2210 1cbd 6909 4b3e 8f08 cebd
00000070: 181e f2bb dd11 933d 3064 c0bd 92cd babd
00000080: 7fdf a8bd aabe a53d 682f 49be 0241 173d
00000090: f35e 04be a7f1 293e 74c2 0b3d 54ab 073e
000000a0: fe35 ba3c 511d 15bd 58e8 0a3d 722c 2f3e
000000b0: 0e2a 92bd 91f0 10be 4ce0 28be b079 b73c
000000c0: 8b1a 103e 0bd5 2bbe 43a2 e4bd 6fbf 45bd
000000d0: 5e3d 7a3d 4c7d 09be ccb1 8f3e 204f f13d
000000e0: f42b 643e 4a93 063d 453a 813d 3398 ec3d
000000f0: 9a92 d4bd 6827 9d3c 58c8 80be 1f84 a13d
00000100: 23a3 b1bd b77b 38be 25cd bcbd 3a56 0ebe
00000110: fcb0 a6bd 7440 423e afce 753e 5d7a 81be
00000120: 903d 3e3d 9c03 bcbd b3b5 193e ee1a 043e
00000130: 2dc7 a63d 6a9d fb3b a646 dbbd 7b1f 4f3e
00000140: 0022 91bc f4f8 603e 6041 76bd 65b5 883d
00000150: a368 08bf 7b8d e0bd 25f2 0f3e 63b9 55be
00000160: dc26 dfbd cb69 653e c397 b63e 7fe9 133d
00000170: a127 0fbd a610 ce3d 5275 60bd 8602 9d3e
00000180: 0279 943e 6f18 223e b9fe 653e 6f9b 7fbd
00000190: 4d9e 293e 89fc f93d 652f 07be ba2a 0bbe
000001a0: 0da8 2abe bd4c 18be a24f 113e 5e2a d7bd
000001b0: 6e96 143e 9c96 9dbe 857a edbc 276c ddbc
000001c0: bcd3 fa3d 20a1 633e 3443 b1bb e954 31be
000001d0: 303e 8ebe 5d9b 94bd 21b2 74bc a9fc 48be
000001e0: fd86 74be ff98 88bd 4469 0b3e e790 00be
000001f0: 7aca 933e 40c5 c43d 88ac fcbd 200e 743e
00000200: 487f 833d 3948 8739 30c8 e7bd fc44 01bd
00000210: c887 80be d2c6 26bd fa36 6abd ca76 2ebc
00000220: 2361 8bbe 3df8 d0bd d050 ffbd 2c71 b0bd
00000230: 5b92 843d 656e 34ba 6099 8fbd ad48 85bd
00000240: d661 b7be 6c17 323e fc6d 03be 8aeb 1cbe
00000250: 056d 64be 146c e5bc d592 7cbe 4fbf 183e
00000260: 8438 313e 6c8f e5bd 067d 72bd 3d9a 0dbe
00000270: 0ebe 6abc 87c3 1fbe f565 333d 2d83 f43d
00000280: 1057 173e 584c d53c 8d50 abbc 86fe 12be
00000290: 1a6b eb3c 62bf e8bd 3069 293e b01c 173e
000002a0: 8eff d23d af3c f83d 6c29 233e 3c04 393e
000002b0: e419 203d 1902 eebd db1d d7bd 69ea 9d3d
000002c0: 5c47 413e f7dd 4bbe 16c4 c9bc 4cc0 b0bd
000002d0: e98f 05bd 5d03 aebd 471c 23bb fcf0 073e
000002e0: 94c6 a93d b280 4e3c 4148 3f3e b422 3fbd
000002f0: 3b17 883e 2a2c 863e b77b 48be 0f9b 483e
00000300: 7b12 82bd 3330 e3bd df40 ba3d 7624 65bc
00000310: 127f 89bd c21f 3cbd 71db a23b 56d4 243e
00000320: 7d06 213d 4f6f 6e3e 9002 0dbd d725 d63b
00000330: 354b 533e 5051 c63d a6bb 363d bf0a d9bd
00000340: c200 96bd b3c1 07be 46bc e13b 3c6a 04be
00000350: 9958 7dbc 689b 5a3c 03d1 823e a37b 133e
00000360: 7c83 a43e 2545 8f3e b671 94bd 904a 4d3e
00000370: 2d14 113e d426 c43d 2e0e 9c3d fce9 ed3d
00000380: 7a33 423c 6190 0d3d 5066 80bd f785 993d
00000390: fab2 79bd 8f9f f53d 4060 cc3d a815 873c
000003a0: f967 2f3e 44b0 08be b6a9 733e fe0b 60bd
000003b0: 671c 2d3e ddb9 b83c 9989 373e 09e9 71bd
000003c0: 7beb c9bd baab 743e c301 263d daf2 3cbc
000003d0: 1d76 fb3d 8b28 313d 94d8 d93c 413e d9bd
000003e0: 5980 603e 4767 073e ce85 7fbd 9c18 1c3e
000003f0: a5dd 1b3e 874f 303e 6ee7 5f3c 6b29 11be
-0.010262084 -0.31018323 -0.01854006 0.13369007 -0.13354675 0.16772357 0.17343211 -0.13201874
0.2124354 0.093044885 -0.18652873 -0.036331277 0.011521864 0.12136116 0.19028735 -0.11050882
-0.072478816 0.063680746 0.18178609 0.20211665 -0.08002888 -0.042357016 -0.08437926 -0.06444879
0.23180786 -0.038101323 0.19827808 -0.10060226 -0.0073888414 0.071811415 -0.09394109 -0.09121241
-0.082457535 0.08093007 -0.1964699 0.03692723 -0.12926845 0.1659609 0.03412099 0.1324895
0.022730824 -0.03640491 0.033912987 0.17106798 -0.071369275 -0.14154269 -0.16491812 0.022396892
0.14072625 -0.16780488 -0.111637615 -0.04827827 0.06109368 -0.13426703 0.28065336 0.1178267
0.22282392 0.03285531 0.06309942 0.11552467 -0.103795245 0.01918383 -0.2515285 0.07886528
-0.08673694 -0.18015943 -0.09218816 -0.1390008 -0.08139226 0.189699 0.24004625 -0.25288668
0.04644543 -0.09180376 0.15010719 0.12900898 0.081434585 0.0076786773 -0.107068345 0.20226853
-0.017716408 0.21969968 -0.06012094 0.06675223 -0.5328466 -0.10964485 0.14057215 -0.208715
-0.10896084 0.22403638 0.3566266 0.03611135 -0.034949902 0.10061769 -0.054799385 0.30665988
0.28998572 0.15829633 0.2246045 -0.062404092 0.16564293 0.122063704 -0.13201673 -0.13590518
-0.16665669 -0.14873023 0.14190534 -0.10506128 0.1451051 -0.30778968 -0.028989086 -0.02702911
0.122474164 0.22229433 -0.0054096226 -0.17317547 -0.2778182 -0.07256196 -0.014935047 -0.19627632
-0.23879619 -0.06669807 0.13614374 -0.12555276 0.28865415 0.09607935 -0.12337595 0.23833513
0.06420761 0.00025803017 -0.113174796 -0.03155993 -0.25103593 -0.040716954 -0.057181336 -0.010648439
-0.27222547 -0.10203598 -0.12466586 -0.08615336 0.064732276 -0.0006882905 -0.07011676 -0.065080024
-0.3581683 0.17391747 -0.12834924 -0.15324226 -0.22307213 -0.028005637 -0.24665387 0.14916728
0.17306715 -0.11208996 -0.059201263 -0.13828368 -0.014327539 -0.15601932 0.043798406 0.11939082
0.14779305 0.02603738 -0.020912433 -0.14354905 0.028737593 -0.113646284 0.16544032 0.14757037
0.103026494 0.121209495 0.1593377 0.18068022 0.03908719 -0.11621494 -0.10503741 0.07710726
0.18874878 -0.19908892 -0.024629634 -0.08630428 -0.032607947 -0.08496735 -0.002488868 0.13275522
0.08289829 0.012603926 0.18679906 -0.046663955 0.26580223 0.2620557 -0.19578443 0.195904
-0.06351181 -0.11093178 0.090944044 -0.013985744 -0.0671369 -0.045928724 0.004970007 0.16096625
0.03931283 0.23284648 -0.034426272 0.0065352726 0.20634158 0.09683478 0.04461255 -0.10597753
-0.07324363 -0.13257484 0.006888899 -0.1293115 -0.015463018 0.013342716 0.25550088 0.14402632
0.32131565 0.2798244 -0.07248251 0.20047975 0.14167853 0.095777184 0.07619892 0.116168946
0.011853093 0.03456152 -0.062695146 0.07496255 -0.0609617 0.11993324 0.09979296 0.016489819
0.17129506 -0.1334849 0.23795208 -0.054698937 0.16905366 0.022549564 0.17923583 -0.05906013
-0.098593675 0.23893633 0.040529024 -0.01153251 0.12278388 0.043251555 0.02659253 -0.10607577
0.21923961 0.13222991 -0.062383465 0.15243763 0.1522127 0.17217837 0.013666017 -0.14175956

fc3.bias f4 [10]
00000000: 6af5 13be 1791 8dbf 85ed babe ce13 963f
00000010: c7bf 1e3f 8749 a13e c3a9 3f3c 8027 f9be
00000020: 983e 20be c118 283e
-0.14449087 -1.1059903 -0.36509338 1.1724794 0.6201138 0.3150141 0.011698189 -0.4866295
-0.15648878 0.16415693
