Pytorch/model_backup/cifar_net.pth (torch_old, 428641 bytes, 10 tensors)

conv1.weight f4 [100, 3, 5, 5]
-0.076197535 -0.06939281 0.033730943 -0.00250652 -0.25385818 0.10427823 0.19119631 0.28764075
0.061517503 0.038218103 0.011209099 0.01872204 -0.1566414 0.0924993 -0.14477019 -0.0135781905
-0.025328526 -0.23085842 0.036637645 -0.0720271 0.20805167 -0.014531053 -0.22105908 0.086075485
0.26853052 -0.09805444 -0.028372863 0.08646419 -0.048983555 -0.22947495 0.02400003 0.051980812
0.26453367 0.26402053 -0.09014929 -0.002374789 -0.06864811 0.081268944 0.006732856 0.01935298
-0.019220782 0.008410808 -0.31147164 0.039556313 -0.012305762 0.29877943 0.2284041 -0.283503
0.08795876 0.34014407 -0.2885957 -0.1272292 -0.1419348 -0.12136452 -0.22663787 -0.19109187
-0.04862381 0.16993636 0.17379907 -0.18706676 -0.051948294 -0.19365194 -0.14003359 -0.11716413
-0.20492668 0.025661848 0.002349698 -0.2784297 -0.015613708 0.031148586 0.4527282 0.2801243
-0.059878476 0.29796427 0.33447197 -0.20675695 -0.14134935 0.014540576 0.10569208 0.052796047
-0.15752442 0.09286173 0.06869169 0.28761554 -0.118538804 -0.14199227 0.037494283 0.28542605
0.1555815 0.090003945 -0.31929645 -0.2906615 -0.0059684636 0.09668683 0.028318504 -0.35655653
-0.17441119 -0.1479191 -0.069316275 0.018423693 -0.033683263 0.044086933 0.15667929 0.18272513
0.14484932 0.120416485 0.09371921 0.05384413 0.20768623 0.23146361 0.10284558 0.22785164
0.08343281 0.23168448 -0.011204212 0.12681442 -0.0416159 0.10932513 0.12984826 0.034999155
0.10000873 0.23528697 0.13870019 0.12350873 0.05400161 -0.07834159 -0.23987973 -0.07437675
0.005053667 0.1900913 -0.123772465 -0.308873 -0.39147303 -0.37856492 -0.04200799 -0.083937824
-0.22460175 -0.41397807 -0.48118803 -0.32443923 0.10915617 -0.10205766 -0.12748064 -0.34224918
-0.3793357 0.5323878 0.49095282 0.25774828 0.18319993 -0.11674565 -0.19062462 0.39471078
-0.120886624 -0.5783517 0.3084095 -0.15174077 -0.07833606 0.6905264 -0.7654131 -0.024660768
0.012412115 -0.6948243 1.099633 0.7089539 -0.83267313 0.28965756 -0.4492059 -0.7394501
1.1510136 0.09233754 -0.120211415 0.6775518 -0.7509289 -0.19414137 0.5333376 -0.14304243
0.25174055 -0.084738635 -0.19599067 0.56636435 0.07640753 -0.16005076 0.7767904 -0.50711936
0.17356732 -0.035715956 -0.6929418 1.019573 0.8229904 -0.6688598 0.18130206 -0.58486986
-1.011442 0.8851843 0.09692463 -0.16292496 0.76614 -0.90790176 -0.4560415 0.3578101
-0.104684085 0.08507389 -0.3042156 -0.46256194 0.4098765 0.24514636 -0.15467487 0.5529173
-0.939463 -0.25068164 0.30605784 -0.6660706 0.8497863 0.42823598 -1.1241308 0.39242205
-0.25940225 -0.6876669 0.9140381 -0.019893786 0.041148398 0.90604895 -0.5724462 -0.3334186
0.5746483 0.0142634455 0.3167416 0.08304465 -0.24117093 0.116377376 0.25311312 0.16284415
-0.6035555 -0.23968688 0.31967676 0.13266735 -0.80299133 -0.6034995 0.5484682 0.4523008
-0.55196977 -0.43882424 0.58373636 0.49483556 -0.1535402 -0.26502496 0.38279492 0.36761683
0.045549348 -0.07456666 0.04395631 0.37448722 0.21823354 -0.27159384 -0.06581313 0.40653598
00000000: 740d 9cbd d11d 8ebd 7529 0a3d 6d44 24bb
00000010: b3f9 81be d38f d53d f7c8 433e a645 933e
00000020: c7f9 7b3d 968a 1c3d 5ea6 373c f75e 993c
00000030: 9a66 20be 4670 bd3d a33e 14be 0f77 5ebc
00000040: c57d cfbc 2666 6cbe 5b11 163d f282 93bd
00000050: 7f0b 553e a713 6ebc 505d 62be 5848 b03d
00000060: d57c 893e c4d0 c8bd 356e e8bc 2314 b13d
00000070: fba2 48bd 7bfb 6abe b69b c43c d5e9 543d
00000080: f570 873e b32d 873e 31a0 b8bd 59a2 1bbb
00000090: 6197 8cbd 5570 a63d 4a9f dc3b 248a 9e3c
000000a0: e774 9dbc 7ccd 093c 3679 9fbe cd05 223d
000000b0: 1b9e 49bc 9ef9 983e c4e2 693e 4e27 91be
000000c0: b923 b43d 5d27 ae3e d1c2 93be 5f48 02be
000000d0: 5b57 11be f68d f8bd c213 68be 96ad 43be
000000e0: c329 47bd cc03 2e3e 62f8 313e 6e8e 3fbe
000000f0: bcc7 54bd b24c 46be f764 0fbe bff3 efbd
00000100: 4dd8 51be cc38 d23c 64fd 193b 568e 8ebe
00000110: a3d0 7fbc 522b ff3c fecb e73e 746c 8f3e
00000120: 2243 75bd c68e 983e e93f ab3e 18b8 53be
00000130: e2bd 10be 993b 6e3c 1775 d83d ab40 583d
00000140: 154e 21be 4a2e be3d 3bae 8c3d 5842 933e
00000150: 79c4 f2bd 6c66 11be 9b93 193d 5d23 923e
00000160: c250 1f3e fd53 b83d d37a a3be 96d1 94be
00000170: 1a93 c3bb bf03 c63d 35fc e73c 948e b6be
00000180: d998 32be 1b78 17be b1f5 8dbd 49ed 963c
00000190: 76f7 09bd 8094 343d 8970 203e 4c1c 3b3e
000001a0: 6153 143e eb9c f63d dbef bf3d aa8b 5c3d
000001b0: b3ab 543e cc04 6d3e b4a0 d23d f151 693e
000001c0: d2de aa3d b23e 6d3e df91 37bc a4db 013e
000001d0: 6f75 2abd dbe5 df3d f1f6 043e 465b 0f3d
000001e0: 61d1 cc3d 11ef 703e 6c07 0e3e 25f2 fc3d
000001f0: cb30 5d3d 8e71 a0bd 08a3 75be d652 98bd
00000200: 3b99 a53b 4ba7 423e 6b7c fdbd 9a24 9ebe
00000210: 276f c8be 43d3 c1be 9210 2cbd 98e7 abbd
00000220: 00fe 65be eff4 d3be 475e f6be e61c a6be
00000230: 458d df3d 9b03 d1bd 498a 02be 493b afbe
00000240: 4a38 c2be 914a 083f 2b5e fb3e 95f7 833e
00000250: c398 3b3e 5818 efbd 1a33 43be 8817 ca3e
00000260: 6893 f7bd db0e 14bf dae7 9d3e ef61 1bbe
00000270: a86e a0bd 57c6 303f 1df2 43bf 6105 cabc
00000280: 2f5c 4b3c 01e0 31bf c6c0 8c3f 017e 353f
00000290: 112a 55bf ff4d 943e 51fe e5be 9a4c 3dbf
000002a0: 6a54 933f 771b bd3d 6731 f6bd 0974 2d3f
000002b0: e03c 40bf ffcc 46be d088 083f b779 12be
000002c0: 23e4 803e 738b adbd c7b1 48be 41fd 103f
000002d0: 8d7b 9c3d 59e4 23be bcdb 463f 93d2 01bf
000002e0: a2bb 313e e54a 12bd a264 31bf 5e81 823f
000002f0: 80af 523f 653a 2bbf 3fa7 393e 08ba 15bf
00000300: ee76 81bf 709b 623f 6c80 c63d cdd5 26be
00000310: c021 443f 406c 68bf 467e e9be e332 b73e
00000320: 9c64 d6bd 383b ae3d 26c2 9bbe ebd4 ecbe
00000330: 55db d13e a607 7b3e 1763 1ebe fd8b 0d3f
00000340: a680 70bf 5859 80be 9db3 9c3e 9a83 2abf
00000350: 988b 593f bf41 db3e 85e3 8fbf 8beb c83e
00000360: 5fd0 84be f00a 30bf 67fe 693f 4bf8 a2bc
00000370: 398b 283d d3f2 673f d68b 12bf d8b5 aabe
00000380: 271c 133f 3ab1 693c f42b a23e 5013 aa3d
00000390: 83f5 76be 4357 ee3d 0b98 813e 9ec0 263e
000003a0: 9d82 1abf 7a70 75be acac a33e f3d9 073e
000003b0: d790 4dbf f17e 1abf 6968 0c3f f893 e73e
000003c0: e44d 0dbf 92ad e0be bf6f 153f 165b fd3e
000003d0: a439 1dbe 5ab1 87be b2fd c33e 4638 bc3e
000003e0: f491 3a3d 68b6 98bd 880b 343d cabc bf3e
000003f0: 9d78 5f3e 590e 8bbe 09c9 86bd 7c25 d03e

conv1.bias f4 [100]
-0.8149623 -1.0945421 -0.649243 -0.6974863 -0.63400346 -0.7124515 -0.64095044 -0.4417512
-0.59944504 -0.66802096 -0.8203611 -0.7056785 -0.49274254 -0.9587183 -0.92784864 -1.0628762
-0.3510635 -0.7394909 -0.61625254 -0.36612082 -0.12649298 -0.92820317 -0.8032328 -0.51254493
-0.4451764 -0.43927565 -1.0824307 -0.20979543 -0.26275343 -0.6098997 -0.83500916 -0.6343657
-0.4139262 -1.3681518 -1.2415912 -1.180811 -0.8495646 -0.4657547 -0.67101735 -0.5311922
-0.40597302 -1.1179852 -1.109112 -0.29464644 -0.63530487 -0.8909353 -0.8868187 -0.9200585
-0.44245335 -0.42002365 -0.33343336 -0.5703872 -0.6124712 -1.0026947 -0.5920238 -0.86129105
-0.32924926 -0.7871852 -0.5233846 -0.5844833 -0.55852044 -1.0008757 -0.3346614 -0.7789069
-0.5153425 -0.53972894 -0.5701977 -0.5435228 0.116139725 -1.5432296 -0.553164 -0.38871723
-1.2282941 -1.0941269 -0.35151058 -0.30738154 -0.7562291 -0.66410923 -0.5335435 -1.0796552
-0.26760858 -0.5780038 -1.1700141 -0.4060016 -0.5104931 -0.61256516 -0.8084651 -0.92377216
-0.77357554 -0.65843534 -0.5220353 -0.9258168 -0.6036559 -0.81999993 -1.2570263 -0.70728266
-0.591645 -0.7162468 -0.5607681 -0.7785001
00000000: 5fa1 50bf f519 8cbf ca34 26bf 768e 32bf
00000010: 0d4e 22bf 3963 36bf 5415 24bf 372d e2be
00000020: 3b75 19bf 6c03 2bbf 2f03 52bf 59a7 34bf
00000030: c048 fcbe 906e 75bf 7d87 6dbf 540c 88bf
00000040: 98be b3be 474f 3dbf bac2 1dbf 3074 bbbe
00000050: 6087 01be b99e 6dbf aaa0 4dbf 2536 03bf
00000060: 29ee e3be bde8 e0be 178d 8abf 9dd4 56be
00000070: 9e87 86be 6322 1cbf 29c3 55bf ca65 22bf
00000080: 23ee d3be 991f afbf 76ec 9ebf d124 97bf
00000090: 117d 59bf 6677 eebe cbc7 2bbf 36fc 07bf
000000a0: b2db cfbe 241a 8fbf 62f7 8dbf e6db 96be
000000b0: 57a3 22bf 5614 64bf 8d06 63bf f488 6bbf
000000c0: 3f89 e2be 570d d7be c7b7 aabe e504 12bf
000000d0: eaca 1cbf 4d58 80bf df8e 17bf 927d 5cbf
000000e0: 5c93 a8be f884 49bf 88fc 05bf b3a0 15bf
000000f0: 32fb 0ebf b21c 80bf bd58 abbe 7166 47bf
00000100: 7ced 03bf ad2b 0abf 7af8 11bf 4f24 0bbf
00000110: aada ed3d 8c88 c5bf 289c 0dbf f205 c7be
00000120: be38 9dbf 5a0c 8cbf 32f9 b3be 1d61 9dbe
00000130: 3b98 41bf 1003 2abf 4f96 08bf 2432 8abf
00000140: fe03 89be 0ff8 13bf 06c3 95bf 71df cfbe
00000150: adaf 02bf 12d1 1cbf 92f7 4ebf 557c 6cbf
00000160: 0c09 46bf 388f 28bf 1ba4 05bf 5402 6dbf
00000170: 3189 1abf 84eb 51bf 3de6 a0bf 7a10 35bf
00000180: 0c76 17bf f35b 37bf 808e 0fbf c84b 47bf

conv2.weight f4 [16, 100, 5, 5]
-0.124090046 -0.08278752 0.038344197 0.21288846 0.16484928 -0.18889561 -0.19724831 -0.08955935
0.15562107 0.18517782 -0.12212942 -0.014797407 -0.043932036 0.03716306 0.105041 0.09691604
-0.027183572 0.0007950632 0.011168549 -0.020981355 -0.018943433 -0.0005247909 0.04332555 0.048938114
0.01176584 0.07526234 -0.10462912 -0.15732954 -0.084994934 0.07234173 -0.06299681 -0.121448286
-0.14473036 -0.09080986 -0.059542764 -0.025428887 -0.054897875 -0.12210699 -0.05447398 0.004048737
0.092218034 -0.012127204 0.015143191 -0.030380577 0.01107344 0.060951605 0.07362409 0.02879308
0.006248435 -0.035394814 -0.6484145 -0.11093817 0.04735478 0.24525267 -0.02404966 -0.24431676
0.1052096 0.15282716 0.04034059 -0.21771842 0.008493778 0.18285869 0.010257713 -0.019302798
-0.11022579 -0.09349248 0.14208789 0.003998612 0.35657728 0.17943418 -0.04343676 0.236091
0.15743455 -0.060076468 -0.3082706 0.32536 0.118937545 0.14795242 0.17373806 -0.20758046
0.110903725 0.13678338 0.31874394 -0.07033299 0.06299526 -0.21610506 0.2626556 0.19571844
-0.2341068 -0.10947853 -0.20419332 0.06697706 0.050591893 0.20336488 0.0004015664 0.10428976
-0.39539084 0.17897515 0.17003603 -0.19171242 0.047879327 0.13921192 -0.054663353 -0.013148226
0.24593452 0.29855263 0.20953456 0.055506416 -0.092285775 0.32020837 0.08588365 0.0878076
-0.11166956 -0.20775579 0.14219153 0.21698448 0.031512316 -0.079735816 -0.2219949 0.042449746
0.11320735 0.25391304 0.115022466 -0.18383195 0.0037097507 0.4108308 0.3086948 0.2800806
0.09991081 -0.16148286 -0.21389109 -0.23967357 -0.06400818 -0.070150994 -0.11916861 -0.25970596
-0.032698467 -0.065197505 -0.105713554 0.12887809 0.012128301 -0.13139006 -0.21523884 0.021571165
0.14807265 -0.06970723 -0.21847498 -0.14163017 -0.059016414 -0.03589699 0.43592614 0.032001037
0.059407562 -0.12405566 -0.025838928 0.10893866 -0.023453744 -0.09783509 -0.01231847 0.028882692
-0.24944045 -0.16786787 0.14734958 0.13814339 0.08553248 -0.17275877 0.16914113 0.2566042
-0.11802633 -0.012110261 -0.124654464 0.30354333 0.054577332 -0.04981072 0.1022255 0.08929024
-0.015768405 0.049429607 0.019687813 -0.06148388 0.030079093 -0.02205576 -0.0522612 -0.10442576
-0.07212798 -0.050974023 -0.10973063 -0.109251596 -0.028290162 -0.053861257 -0.039434414 -0.13719447
-0.043600418 -0.007176064 -0.02594703 -0.052583583 -0.07379527 -0.0050021363 -0.05173083 -0.028668087
0.02462458 -0.1930327 -0.3166521 -0.05360163 -0.047891244 0.056036323 -0.18725374 -0.0474819
-0.023193523 0.06870218 0.118876986 0.13723499 0.14952794 0.2504736 -0.13478059 -0.035282344
0.06465241 -0.17533325 -0.054601062 0.067134075 0.022543868 -0.06719956 0.027123496 -0.23275451
0.39165923 -0.13459794 -0.08580344 -0.057579163 -0.06201378 0.13832985 -0.12346654 -0.10264358
0.082776815 -0.035542328 0.0024438645 -0.105867654 -0.036370274 0.0030154777 0.14561088 -0.028704919
0.12058337 -0.06333287 0.024885098 0.106602825 0.005635563 0.29889467 0.009740183 -0.052755747
0.009166043 -0.015849123 -0.047483645 -0.039179794 -0.11150657 -0.16686673 0.07610697 -0.12993068
00000000: ec22 febd 818c a9bd ce0e 1d3d 6fff 593e
00000010: 40ce 283e da6d 41be 76fb 49be e46a b7bd
00000020: 215b 1f3e 419f 3d3e fd1e fabd d370 72bc
00000030: 14f2 33bd 4b38 183d bc1f d73d eb7b c63d
00000040: 15b0 debc ca6b 503a 4afc 363c 17e1 abbc
00000050: 422f 9bbc 1f92 09ba 2276 313d 5573 483d
00000060: 83c5 403c 2423 9a3d cb47 d6bd ff1a 21be
00000070: d311 aebd e727 943d 7904 81bd e1b9 f8bd
00000080: 3234 14be 85fa b9bd 1de3 73bd 3e50 d0bc
00000090: 98dc 60bd 3b13 fabd 1c20 5fbd 45ab 843b
000000a0: cfdc bc3d 2eb1 46bc 261b 783c b0e0 f8bc
000000b0: 606d 353c 64a8 793d 3ac8 963d 77df eb3c
000000c0: acbf cc3b 27fa 10bd 7efe 25bf 8d33 e3bd
000000d0: 16f7 413d 8423 7b3e cb03 c5bc 2c2e 7abe
000000e0: 2178 d73d b97e 1c3e 2d3c 253d 94f1 5ebe
000000f0: 7d29 0b3c 4f3f 3b3e f70f 283c e720 9ebc
00000100: 0fbe e1bd fc78 bfbd 7d7f 113e ca06 833b
00000110: 4c91 b63e 98bd 373e beea 31bd d7c1 713e
00000120: 8636 213e be12 76bd a5d5 9dbe 9695 a63e
00000130: 8795 f33d d780 173e 64e8 313e f98f 54be
00000140: 7e21 e33d f110 0c3e 6832 a33e be0a 90bd
00000150: a903 813d a54a 5dbe cb7a 863e 6a6a 483e
00000160: b1b9 6fbe 4836 e0bd 0e18 51be 452b 893d
00000170: 7239 4f3d e23e 503e 5489 d239 df95 d53d
00000180: ab70 cabe 4345 373e ed1d 2e3e 4350 44be
00000190: 1d1d 443d 928d 0e3e aee6 5fbd a86b 57bc
000001a0: 42d6 7b3e e4db 983e 3a90 563e b25a 633d
000001b0: 5300 bdbd 5af2 a33e c4e3 af3d 79d4 b33d
000001c0: 03b3 e4bd efbd 54be a89a 113e 2e31 5e3e
000001d0: 0f13 013d 884c a3bd a252 63be c9df 2d3d
000001e0: 41d9 e73d e400 823e e690 eb3d 713e 3cbe
000001f0: 4a1f 733b 6a58 d23e 3f0d 9e3e b966 8f3e
00000200: 0a9e cc3d c35b 25be 4406 5bbe fd6c 75be
00000210: b816 83bd 53ab 8fbd ac0e f4bd 2ef8 84be
00000220: d4ee 05bd 4586 85bd 5980 d8bd 9ef8 033e
00000230: c8b5 463c 1e8b 06be 9267 5cbe 03b6 b03c
00000240: 5ba0 173e aac2 8ebd e8b7 5fbe 8007 11be
00000250: 32bb 71bd b908 13bd b631 df3e 8513 033d
00000260: 5855 733d e510 febd 29ac d3bc 3b1b df3d
00000270: 1122 c0bc c35d c8bd 68d3 49bc 659b ec3c
00000280: 516d 7fbe 8ee5 2bbe cfe2 163e 7675 0d3e
00000290: a72b af3d ade7 30be 5533 2d3e a061 833e
000002a0: cab7 f1bd 1e6a 46bc d74a ffbd 086a 9b3e
000002b0: 7b8c 5f3d 5306 4cbd 9a5b d13d cddd b63d
000002c0: be2c 81bc b376 4a3d 5648 a13c 85d6 7bbd
000002d0: 6e68 f63c 48ae b4bc d70f 56bd 2cdd d5bd
000002e0: d6b7 93bd 23ca 50bd 74ba e0bd 4dbf dfbd
000002f0: c5c0 e7bc 9f9d 5cbd fb85 21bd b57c 0cbe
00000300: 5a96 32bd 3025 ebbb de8e d4bc e261 57bd
00000310: f921 97bd f6e8 a3bb b5e3 53bd 56d9 eabc
00000320: 7db9 c93c 5daa 45be 3920 a2be 628d 5bbd
00000330: 9c29 44bd 5886 653d 72bf 3fbe 617c 42bd
00000340: 5800 bebc bbb3 8c3d c775 f33d 5487 0c3e
00000350: da1d 193e 133e 803e ec03 0abe 3884 10bd
00000360: 7c68 843d 8f8a 33be 5da5 5fbd 977d 893d
00000370: ebad b83c ec9f 89bd 1832 de3c 3357 6ebe
00000380: 8f87 c83e 0bd4 09be b7b9 afbd 21d8 6bbd
00000390: 2902 7ebd 57a6 0d3e 06dc fcbd cc36 d2bd
000003a0: e486 a93d d594 11bd 3e29 203b 24d1 d8bd
000003b0: fff8 14bd 529f 453b 051b 153e 9426 ebbc
000003c0: 6af4 f63d aab4 81bd d5db cb3c 9552 da3d
000003d0: 87aa b83b b908 993e 4a95 1f3c 6916 58bd
000003e0: 2c2d 163c 05d6 81bc 367e 42bd fe7a 20bd
000003f0: 8e5d e4bd 1ddf 2abe f9dd 9b3d 8c0c 05be

conv2.bias f4 [16]
-0.121520065 0.65535414 0.15080601 2.1618395 -0.20312206 0.91736734 0.03928446 -0.08279859
0.5197936 0.23664847 -0.3948181 -0.03715109 1.1698261 0.94581133 -1.1757191 -1.6972083
00000000: 83df f8bd 4ac5 273f e46c 1a3e 945b 0a40
00000010: 3bff 4fbe 96d8 6a3f bee8 203d 4f92 a9bd
00000020: 3211 053f fa53 723e 9925 cabe be2b 18bd
00000030: ddbc 953f b120 723f f77d 96bf 1f3e d9bf

fc1.weight f4 [120, 400]
0.43116057 0.014108215 -0.22660895 -0.15821992 -0.026262188 0.09969106 -0.04580057 0.06459001
-0.0012412411 -0.064020045 0.2668754 0.015146054 0.05445792 -0.08922333 -0.0777671 0.08911201
-0.090117134 -0.0022079542 0.020925261 0.031157665 -0.060272556 0.07852915 -0.07907225 0.07630625
0.2193213 -0.094248995 0.06320279 0.07285403 0.06015081 0.10114755 -0.023906283 0.057020158
-0.0325071 -0.058554247 -0.0038174521 0.103846975 0.10080554 0.06226008 -0.056888353 0.026308509
0.11891254 0.052214384 -0.043538596 -0.15202363 -0.044122424 0.08451931 -0.110734865 -0.030464206
-0.141001 -0.035277568 0.058208156 -0.008918775 0.06554021 -0.041062374 0.02365832 0.09821967
-0.10297205 -0.07267227 0.00640297 -0.03247885 0.002607125 -0.071578465 -0.033889376 0.064467885
0.030594602 0.3059843 0.031481393 -0.10491914 -0.033307314 0.007338095 0.28046823 0.12002582
-0.07023508 0.06395629 -0.1505049 -0.001320953 -0.03946951 -0.13882226 0.061849825 -0.08295716
-0.16487253 0.14419918 0.004564066 -0.03780074 0.046750266 -0.0091746785 -0.047346406 -0.062126882
0.034966968 0.0069790557 0.071256176 0.1211673 -0.014821512 0.058105726 -0.011326776 0.038002145
-0.04701929 -0.028924877 0.07243877 -0.03223673 -0.12468932 0.018700156 0.07635703 0.0010826952
-0.032640114 0.057850536 0.14068305 0.01838752 -0.090237714 0.038696773 0.0040828963 -0.03390855
0.05479635 0.018211942 -0.07854302 -0.07037666 0.008023424 0.10195856 -0.1356014 -0.13104345
-0.103072464 -0.08497667 -0.14696714 -0.14244318 -0.00497984 0.10236304 -0.07370721 -0.0032595939
-0.10708596 -0.11042987 -0.054497153 -0.073297106 -0.08126651 0.034983855 -0.055374525 -0.09160994
0.03124391 -0.008837019 0.061745685 -0.00031926422 -0.038386483 -0.061865814 -0.011939499 -0.024788111
0.006168546 0.019307625 0.04289941 -0.07611445 -0.061377864 -0.0038717561 0.007924171 -0.09836202
-0.05451899 0.18091743 0.043571882 -0.16349855 -0.062416952 -0.07401652 -0.08354703 -0.10175322
0.0074478714 -0.041281354 -0.0028155693 -0.06324873 -0.10019429 0.021282664 -0.006451958 -0.038060196
-0.031309634 0.042628564 -0.03796078 0.030210748 0.020307506 0.21551855 0.08371065 0.098556355
-0.04973982 -0.19192892 -0.21295561 -0.08550814 0.05322765 -0.002948286 -0.00093368796 -0.030549698
-0.052802887 0.12114001 -0.12214159 0.029121615 -0.17909256 0.017296623 0.03457616 0.07167756
0.03924296 0.060757887 -0.055087294 0.07289866 0.05041629 0.02027346 0.05027091 0.022730356
-0.12272743 0.1510859 0.019543963 0.031278163 -0.0638277 -0.1675086 0.029569717 0.15810736
-0.18432465 -0.08779965 -0.059760403 0.010692211 -0.107215986 -0.13756722 -0.010250818 -0.03262359
0.025362233 -0.043694127 -0.07838521 0.10212504 0.034920923 -0.09243046 0.08130477 -0.052969866
0.007851958 -0.21047096 0.07482623 0.0076731406 0.09486091 0.0035289896 -0.12201923 -0.11383955
-0.0014052424 -0.047729474 -0.041396648 -0.10678823 -0.15317816 -0.07913687 -0.16099611 -0.054732893
0.06768903 -0.037562847 -0.14439313 -0.008295239 -0.102230385 0.11724992 -0.014491666 -0.062800035
0.012255502 -0.050992288 0.106616 -0.0070616854 0.010563837 -0.10407 0.085639335 0.0014594876
00000000: 14c1 dc3e 2526 673c 2d0c 68be 6704 22be
00000010: cd23 d7bc d42a cc3d 6199 3bbd c447 843d
00000020: 24b1 a2ba f11c 83bd e4a3 883e 2827 783c
00000030: 450f 5f3d b9ba b6bd 5b44 9fbd 5c80 b63d
00000040: 558f b8bd 53b3 10bb 746b ab3c 5c3e ff3c
00000050: 5be0 76bd e4d3 a03d a2f0 a1bd 7446 9c3d
00000060: c395 603e 9e05 c1bd 7770 813d 7e34 953d
00000070: b260 763d 7226 cf3d 1cd7 c3bc f88d 693d
00000080: 2a26 05bd 94d6 6fbd 382e 7abb b9ad d43d
00000090: 2373 ce3d 6d04 7f3d c303 69bd f184 d73c
000000a0: 6b88 f33d c0de 553d 8755 32bd 15ac 1bbe
000000b0: b7b9 34bd 7618 ad3d f6c8 e2bd 1290 f9bc
000000c0: 9162 10be 367f 10bd ad6b 6e3d 0e20 12bc
000000d0: f239 863d 0531 28bd 18cf c13c 6527 c93d
000000e0: 03e3 d2bd 33d5 94bd 01d0 d13b 8b08 05bd
000000f0: 4ddc 2a3b bb97 92bd 96cf 0abd bd07 843d
00000100: 88a1 fa3c f9a9 9c3e a2f2 003d d9df d6bd
00000110: 406d 08bd 6774 f03b 8899 8f3e 19d0 f53d
00000120: 69d7 8fbd 84fb 823d f51d 1abe d423 adba
00000130: c8aa 21bd 6c27 0ebe 3e56 7d3d 72e5 a9bd
00000140: 58d4 28be f3a8 133e 298e 953b f3d4 1abd
00000150: 357d 3f3d 6451 16bc 4eee 41bd c278 7ebd
00000160: 8639 0f3d 90b0 e43b c2ee 913d 9026 f83d
00000170: edd5 72bc 4500 6e3d f193 39bc 23a8 1b3d
00000180: 4d97 40bd ddf3 ecbc c75a 943d a90a 04bd
00000190: 1d5d ffbd 1231 993c 1361 9c3d 39e9 8d3a
000001a0: a4b1 05bd aff4 6c3d 380f 103e 6da1 963c
000001b0: 8dce b8bd 8280 1e3d d1c9 853b b1e3 0abd
000001c0: 2372 603d 3631 953c 2adb a0bd a321 90bd
000001d0: ae74 033c a6cf d03d 18db 0abe 4130 06be
000001e0: a817 d3bd 4008 aebd 8e7e 16be a0dc 11be
000001f0: ed2d a3bb b7a3 d13d cef3 96bd e99e 55bb
00000200: e24f dbbd 0e29 e2bd 6838 5fbd cb1c 96bd
00000210: 0e6f a6bd 3b4b 0f3d 66d0 62bd fe9d bbbd
00000220: 3af3 ff3c 25c9 10bc 0be9 7c3d eb62 a7b9
00000230: 253b 1dbd 0267 7dbd e39d 43bc 7010 cbbc
00000240: 8421 ca3b 062b 9e3c 4bb7 2f3d e5e1 9bbd
00000250: 5b67 7bbd 4abd 7dbb 62d4 013c 0772 c9bd
00000260: 4e4f 5fbd 6b42 393e 6e78 323d 2a6c 27be
00000270: eba8 7fbd f995 97bd b51a abbd fe63 d0bd
00000280: 460d f43b a316 29bd 6a85 38bb 8d88 81bd
00000290: aa32 cdbd fb58 ae3c f26a d3bb 02e5 1bbd
000002a0: 883e 00bd 4a9b 2e3d c37c 1bbd 887c f73c
000002b0: ed5b a63c e5b0 5c3e 7d70 ab3d ead7 c93d
000002c0: fbbb 4bbd 0489 44be 0911 5abe e41e afbd
000002d0: 3c05 5a3d 0838 41bb bdc2 74ba 5c43 fabc
000002e0: d747 58bd 4118 f83d 5f25 fabd 7490 ee3c
000002f0: 0a64 37be a6b1 8d3c bb9f 0d3d afcb 923d
00000300: 3abd 203d 43dd 783d 37a3 61bd e54b 953d
00000310: 5081 4e3d 8714 a63c dfe8 4d3d 0335 ba3c
00000320: 8558 fbbd 43b6 1a3e a91a a03c 881d 003d
00000330: 19b8 82bd 6087 2bbe 313c f23c e5e6 213e
00000340: 9abf 3cbe 4ed0 b3bd 53c7 74bd 622e 2f3c
00000350: 0e94 dbbd 6cde 0cbe 0cf3 27bc 50a0 05bd
00000360: 75c4 cf3c 9df8 32bd 6d88 a0bd ef26 d13d
00000370: 3e09 0f3d 2e4c bdbd 1e83 a63d eef6 58bd
00000380: 80a5 003c b385 57be 7f3e 993d f86e fb3b
00000390: 7046 c23d 9f46 673b 38e5 f9bd b624 e9bd
000003a0: 1c30 b8ba fb7f 43bd 888f 29bd cab3 dabd
000003b0: bcda 1cbe 8312 a2bd 2adc 24be 992f 60bd
000003c0: 8ca0 8a3d 80db 19bd cbdb 13be c1e8 07bc
000003d0: 2a5e d1bd ba20 f03d 746e 6dbc 4e9d 80bd
000003e0: 4dcb 483c 4add 50bd 7d59 da3d b665 e7bb
000003f0: f213 2d3c a722 d5bd ad63 af3d 474c bf3a

fc1.bias f4 [120]
-0.04907087 0.1031437 0.14608587 -0.026548011 0.24775927 -0.12744378 0.00363829 -0.0012938313
0.1754427 -0.006337626 -0.054470845 -0.10561317 -0.014957695 -0.041699804 0.05841507 -0.006134002
-0.148387 0.11254306 -0.1968882 0.23000704 -0.06506219 0.14773718 0.06177006 0.07002247
0.21958828 0.15468036 -0.15917622 0.260531 0.20273036 -0.11190956 -0.11622764 -0.14513414
-0.01147037 0.27108452 0.4207528 -0.07697911 0.058554072 0.21306452 0.014269962 0.06360743
-0.029077206 -0.042432148 -0.008415591 0.13932516 -0.12943764 -0.055636715 0.2855952 -0.028690148
-0.035593487 0.10043017 0.079781525 0.13875169 -0.13133122 -0.38571522 -0.03492384 0.09520392
0.010118437 -0.10586786 0.30099016 -0.05598011 -0.14775528 0.05335997 -0.13502248 0.14341137
-0.0384843 0.23453674 0.07325934 0.11771371 0.18768512 -0.10173423 -0.17561677 -0.1004415
0.20150663 0.12482625 0.0547001 0.3769246 0.14515653 0.013972655 0.06064106 0.37809595
-0.19457603 0.06495727 -0.21055384 0.1330352 0.027459823 -0.026220087 -0.19271338 -0.29143262
0.07640772 0.009214894 -0.096503526 -0.049646176 0.18598582 0.012741936 0.2903935 0.019853774
-0.096820556 0.24126472 0.14593022 -0.0924468 -0.011730625 -0.06675834 0.073579855 -0.28520647
-0.08250983 0.039614733 0.3628144 -0.034980442 -0.23962525 -0.08155151 -0.010324708 0.17054905
0.14898624 -0.017964179 0.15633518 0.29340687 0.060129773 0.03130712 0.12711814 -0.12780015
00000000: 89fe 48bd 013d d33d 8997 153e 377b d9bc
00000010: 9bb4 7d3e 9f80 02be 6170 6e3b c695 a9ba
00000020: 40a7 333e dcab cfbb d21c 5fbd b84b d8bd
00000030: 1f11 75bc 6acd 2abd a444 6f3d bdff c8bb
00000040: c3f2 17be fa7c e63d 0f9d 49be f786 6b3e
00000050: 533f 85bd 6a48 173e 9a02 7d3d f167 8f3d
00000060: c0db 603e 8764 1e3e 17ff 22be 5264 853e
00000070: 8c98 4f3e d730 e5bd c208 eebd 0b9e 14be
00000080: 38ee 3bbc 97cb 8a3e e96c d73e 39a7 9dbd
00000090: 65d6 6f3d 962d 5a3e 8fcc 693c 9d44 823d
000000a0: 5233 eebc 55cd 2dbd 8ce1 09bc 41ab 0e3e
000000b0: 4d8b 04be 53e3 63bd 8939 923e 9a07 ebbc
000000c0: 7aca 11bd 55ae cd3d 7f64 a33d ec14 0e3e
000000d0: b17b 06be 777c c5be 4d0c 0fbd 46fa c23d
000000e0: cdc7 253c 40d1 d8bd 621b 9a3e 664b 65bd
000000f0: 294d 17be fc8f 5a3d 5543 0abe 6eda 123e
00000100: b7a1 1dbd 662a 703e fe08 963d e313 f13d
00000110: 8730 403e 095a d0bd e2d4 33be 46b4 cdbd
00000120: c157 4e3e e8a4 ff3d 360d 603d 43fc c03e
00000130: eaa3 143e 90ed 643c c362 783d cb95 c13e
00000140: f03e 47be 5108 853d 6d9b 57be 613a 083e
00000150: 6cf3 e03c 82cb d6bc a856 45be a836 95be
00000160: a77b 9c3d 11fa 163c a4a3 c5bd ca59 4bbd
00000170: 1173 3e3e 8ec3 503c 75ae 943e 62a4 a23c
00000180: db49 c6bd 190e 773e bb6e 153e bf54 bdbd
00000190: cf31 40bc 99b8 88bd 09b1 963d 9506 92be
000001a0: eafa a8bd 0f43 223d cfc2 b93e a747 0fbd
000001b0: 5260 75be 7a04 a7bd f728 29bc 69a4 2e3e
000001c0: d98f 183e 9d29 93bc 5416 203e 6d39 963e
000001d0: a34a 763d e53b 003d 422b 023e 0bde 02be

fc2.weight f4 [84, 120]
0.047380414 -0.060333528 -0.008260371 -0.05212739 -0.14317575 -0.07293896 0.11021354 -0.08076988
-0.24151714 0.17762733 -0.1230519 0.003891964 -0.10827505 -0.10766336 -0.062795945 -0.39938757
0.11843064 0.0957485 0.019386685 0.048010375 -0.14751716 0.1577883 -0.3064254 -0.27362588
0.09354722 -0.29377124 0.06777173 0.18991731 -0.038828336 -0.022044329 -0.009037379 -0.00024460885
-0.12723683 0.1737641 0.055223003 0.058049873 -0.59791756 -0.092280164 -0.017920803 0.22896484
0.042098973 -0.17580298 0.019859973 -0.04391767 0.051805265 0.0105806915 0.08050651 -0.06698822
-0.32887158 -0.2600452 -0.3182257 0.08507523 -0.016580766 0.19908415 0.09568719 0.042025317
-0.16179015 0.16807213 -0.025803024 -0.15903121 0.008440337 0.045531895 -0.17963788 -0.09475502
-0.2899265 -0.29384717 -0.1386826 0.08516885 0.14341164 -0.026917083 -0.11475184 0.05645948
-0.27718747 -0.0032393977 -0.11154939 0.14555204 -0.21364395 -0.06274319 0.023698395 0.14440432
-0.007730776 -0.33521807 0.05662347 -0.07938685 -0.057406 0.27517363 0.015154703 -0.1295492
-0.11887768 -0.28172502 -0.09994155 0.117962375 -0.10309465 0.08794319 -0.03160438 0.016540794
-0.14224997 -0.2072073 -0.10871361 -0.21946804 -0.025308514 0.068420425 0.13932897 -0.068358675
-0.14816111 -0.1438887 0.088316254 0.2473982 -0.08924259 -0.061070606 0.059395343 -0.1740237
-0.07199237 0.13341989 -0.17237261 -0.41306376 0.16379353 -0.25673872 -0.052666888 -0.33109835
-0.049925547 -0.15797246 -0.082837954 -0.16950712 -0.14441922 -0.11919748 -0.18088172 0.16490221
0.11184307 -0.025458166 -0.016534954 -0.159245 -0.3187212 0.115742974 -0.070709944 -0.03829921
-0.066481166 -0.19359411 0.12123565 -0.06284499 0.0025264146 -0.30154487 -0.05041807 0.15014146
-0.011640246 0.37329882 0.03511182 -0.12896085 -0.3996002 0.042939276 -0.049077243 0.185604
-0.34809223 0.028353281 -0.03762613 -0.46684325 -0.11735406 0.11315243 0.12855093 -0.021434566
0.09100232 -0.047456093 -0.12381089 0.096406855 -0.17266975 -0.27414522 0.056363933 0.14999618
-0.13952382 -0.16378905 0.25072265 -0.088155925 -0.2594693 -0.14260699 -0.20597608 0.09079509
0.11235367 -0.22390968 -0.019308906 -0.040408395 0.014360626 0.10557749 0.10993673 -0.07003769
0.038028378 -0.29595184 -0.23885831 -0.24574015 -0.17198706 -0.014439754 -0.07621616 -0.1308229
-0.15906648 0.11476706 -0.054566987 -0.09008481 -0.11185746 -0.1441502 0.0533856 0.096968725
-0.327579 -0.11517395 -0.33711848 0.0020311386 -0.12228313 -0.22105214 -0.2563501 -0.08798572
0.07207816 0.05265624 -0.059642844 0.051312633 0.049757555 -0.05780459 -0.053887837 0.021314412
-0.06657676 0.13625154 0.05844719 0.060693264 -0.20434043 0.07382358 -0.014855394 -0.001046436
0.13796072 0.18875222 0.12258055 -0.04268477 0.15329549 -0.05312931 -0.082554735 0.2798462
-0.19930637 -0.27696237 0.10777552 0.20138448 -0.15737401 -0.059376307 -0.023619136 -0.11271197
-0.051161367 0.017496007 -0.32728297 -0.074763104 -0.1737872 0.06351459 -0.029926633 0.025381196
0.15644789 -0.060099453 -0.06215825 0.1499153 0.21693324 -0.120449126 -0.05793961 0.12011151
00000000: f711 423d 4a20 77bd 8256 07bc 8883 55bd
00000010: aa9c 12be 0561 95bd a3b7 e13d ae6a a5bd
00000020: 4550 77be f0e3 353e a202 fcbd 5210 7f3b
00000030: 4fbf ddbd 9c7e dcbd 299b 80bd 877c ccbe
00000040: c38b f23d ca17 c43d d3d0 9e3c 87a6 443d
00000050: bd0e 17be 4293 213e cae3 9cbe b118 8cbe
00000060: af95 bf3d 2f69 96be e8cb 8a3d af79 423e
00000070: 760a 1fbd 4f96 b4bc 8411 14bc d83e 80b9
00000080: 5f4a 02be 37ef 313e 8431 623d b4c5 6d3d
00000090: 2011 19bf 62fd bcbd a6ce 92bc c275 6a3e
000000a0: f96f 2c3d b205 34be 62b1 a23c 04e3 33bd
000000b0: c231 543d a35a 2d3c 99e0 a43d 1f31 89bd
000000c0: db61 a8be a524 85be 7bee a2be ec3b ae3d
000000d0: 63d4 87bc b7dc 4b3e a5f7 c33d bd22 2c3d
000000e0: 51ac 25be 1a1b 2c3e dd60 d3bc 14d9 22be
000000f0: 5749 0a3c a77f 3a3d fef2 37be ec0e c2bd
00000100: 3f71 94be 2373 96be d002 0ebe 026d ae3d
00000110: 80da 123e 3781 dcbc 0303 ebbd 0e42 673d
00000120: 84eb 8dbe 134c 54bb 0274 e4bd 980b 153e
00000130: 7bc5 5abe 807f 80bd 2323 c23c bade 133e
00000140: 7352 fdbb b4a1 abbe 03ee 673d 9395 a2bd
00000150: 8e22 6bbd 8fe3 8c3e 6e4b 783c 8ca8 04be
00000160: 2476 f3bd 433e 90be 28ae ccbd 4296 f13d
00000170: 4a23 d3bd 8f1b b43d 9873 01bd 8f80 873c
00000180: faa9 11be 272e 54be 3ea5 debd 3bbc 60be
00000190: cd53 cfbc 0220 8c3d 41ac 0e3e a2ff 8bbd
000001a0: 8cb7 17be 8f57 13be 27df b43d f455 7d3e
000001b0: d2c4 b6bd 2c25 7abd 8848 733d 4533 32be
000001c0: bc70 93bd 399f 083e 7282 30be 187d d3be
000001d0: 7eb9 273e 4273 83be 3cb9 57bd b985 a9be
000001e0: bb7e 4cbd 88c3 21be f2a6 a9bd 4693 2dbe
000001f0: a2e2 13be cf1d f4bd 0f39 39be 20dc 283e
00000200: fb0d e53d a58d d0bc 5074 87bc 1f11 23be
00000210: 6d2f a3be a70a ed3d 60d0 90bd a2df 1cbd
00000220: 4727 88bd 893d 46be 654a f83d e0b4 80bd
00000230: 3492 253b 1764 9abe 2e83 4ebd afbe 193e
00000240: bbb6 3ebc 0621 bf3e 69d1 0f3d 500e 04be
00000250: 6698 ccbe 18e1 2f3d 3805 49bd fa0e 3e3e
00000260: 2539 b2be 2445 e83c db1d 1abd 1406 efbe
00000270: 5357 f0bd 76bc e73d dba2 033e 8b97 afbc
00000280: 6d5f ba3d 5261 42bd 9090 fdbd f570 c53d
00000290: 57d0 30be c35c 8cbe dedd 663d 9998 193e
000002a0: 55df 0ebe 51b8 27be b85e 803e 188b b4bd
000002b0: 29d9 84be 9107 12be 65eb 52be c7f2 b93d
000002c0: ae19 e63d 9448 65be b62d 9ebc 4683 25bd
000002d0: d548 6b3c 0339 d83d 8226 e13d ec6f 8fbd
000002e0: a5c3 1b3d 0087 97be 4697 74be 4ea3 7bbe
000002f0: 601d 30be b894 6cbc 3817 9cbd 70f6 05be
00000300: 53e2 22be fe0a eb3d a281 5fbd 637e b8bd
00000310: 8615 e5bd 1c9c 13be dcaa 5a3d 8a97 c63d
00000320: 6fb8 a7be 52e0 ebbd cb9a acbe da1c 053b
00000330: 946f fabd 7e5b 62be 5240 83be db31 b4bd
00000340: b79d 933d 12ae 573d 0e4c 74bd 322d 523d
00000350: 94ce 4b3d 81c4 6cbd 7eb9 5cbd 909b ae3c
00000360: 6559 88bd 8685 0b3e 5266 6f3d 8099 783d
00000370: 9e3e 51be d130 973d 0a64 73bc 9128 89ba
00000380: 9345 0d3e 4348 413e 830b fb3d 3ad6 2ebd
00000390: 7ef9 1c3e 1f9e 59bd 7512 a9bd 0048 8f3e
000003a0: f816 4cbe 03ce 8dbe 69b9 dc3d bc37 4e3e
000003b0: a726 21be 9234 73bd eb7c c1bc 89d5 e6bd
000003c0: 958e 51bd c953 8f3c a291 a7be 661d 99bd
000003d0: 46f5 31be f013 823d b328 f5bc 3aec cf3c
000003e0: e033 203e d82a 76bd a699 7ebd 6583 193e
000003f0: bf23 5e3e 08ae f6bd 1652 6dbd 06fd f53d

fc2.bias f4 [84]
1.0163441 0.3348461 -0.14934304 0.0007668616 0.12930389 0.27379376 0.024908165 0.15678108
-0.21288174 0.051620025 0.45652637 -0.08913932 -0.23100196 -0.07726016 0.19921015 0.008554141
0.1721853 0.024285728 0.06627645 0.06875493 0.5744635 0.34862974 0.018553821 -0.07272155
0.04147553 0.036541082 0.07465633 0.5084115 0.51019585 0.22278918 0.9032036 0.26316133
0.14133275 0.017782243 0.6852039 0.29305086 0.08407959 -0.018109081 -0.11407931 -0.0062134992
-0.011156682 0.5107826 0.42976627 0.15207303 -0.010543638 0.7016434 0.74913186 0.05745708
0.23837766 -0.04236682 0.100844756 -0.024086399 0.40541342 0.3704682 0.3443829 -0.025266852
0.13295034 -0.037072543 0.37007943 0.17643413 0.6114723 -0.09144661 0.2285331 0.47139683
0.50455797 0.13906862 0.38495278 0.1719059 -0.38578498 0.20803739 0.2222708 -0.02096501
0.42155945 0.009479919 0.08102704 0.024810482 -0.105685696 0.6712208 0.51425624 0.03494099
0.2952983 0.39987898 0.32416838 -0.1452186
00000000: 9017 823f f370 ab3e 62ed 18be 3607 493a
00000010: 3d68 043e b22e 8c3e 350c cc3c 388b 203e
00000020: acfd 59be 856f 533d d3bd e93e ad8e b6bd
00000030: c78b 6cbe 933a 9ebd bffd 4b3e ab26 0c3c
00000040: 5851 303e ddf2 c63c f3bb 873d 62cf 8c3d
00000050: 0a10 133f 997f b23e 2ffe 973c 09ef 94bd
00000060: 3fe2 293d 1aac 153d 6be5 983d 4227 023f
00000070: 329c 023f d922 643e 5a38 673f 15bd 863e
00000080: 88b9 103e 11ac 913c 8669 2f3f c30a 963e
00000090: ec31 ac3d 7f59 94bc 6aa2 e9bd 9c9a cbbb
000000a0: 84ca 36bc a6c2 023f 530a dc3e 08b9 1b3e
000000b0: 39bf 2cbc e79e 333f 1bc7 3f3f 1d58 6b3d
000000c0: 4619 743e d588 2dbd b287 ce3d d750 c5bc
000000d0: 5992 cf3e 02ae bd3e f552 b03e 6efc cebc
000000e0: 2224 083e 61d9 17bd 0d7b bd3e 26ab 343e
000000f0: 7389 1c3f 5c48 bbbd 9504 6a3e ed5a f13e
00000100: b62a 013f 0168 0e3e 8818 c53e 1a08 303e
00000110: 9c85 c5be c107 553e f59a 633e d0be abbc
00000120: a4d6 d73e aa51 1b3c 81f1 a53d 5a3f cb3c
00000130: be71 d8bd 20d5 2b3f 4ca6 033f 491e 0f3d
00000140: 5731 973e f0bc cc3e 66f9 a53e 2fb4 14be

fc3.weight f4 [10, 84]
0.03574015 -0.30947047 -0.1766804 0.1286886 -0.20386995 0.09673769 0.21347427 -0.08026196
0.32511625 0.1452526 -0.18468116 0.071475126 0.06914582 0.1334563 0.252795 0.018614408
-0.1490018 0.12047569 0.13715258 0.1452418 -0.2674689 -0.13652936 -0.13160254 -0.12490819
0.22983968 -0.022266261 0.19008657 -0.15939659 0.110515825 0.16350617 -0.29669574 -0.037038937
-0.04122507 0.08859804 -0.15859967 0.12689349 -0.15309218 0.23180677 0.12008104 0.13962536
0.034119204 -0.106738284 0.012127193 0.07987613 -0.176594 -0.07730163 -0.23250286 0.0952172
0.1443151 -0.1850679 -0.11493378 -0.12056183 -0.0051153256 -0.20164709 0.27635098 0.03800515
0.2593415 0.09284767 0.05198289 0.07608427 -0.16497372 0.029767465 -0.12748028 0.13321045
-0.08090281 -0.17182209 -0.13258815 -0.14873423 -0.055869106 0.15155381 0.2337998 -0.36136097
0.08672767 0.0009343729 0.14438882 0.12069259 0.17385192 -0.04403808 -0.24647908 0.19482559
-0.08201613 0.18207702 0.026965244 0.09830496 -0.56737155 -0.13548537 0.36435658 -0.3854643
-0.02034243 0.24048702 0.35339195 -0.0040508304 -0.04333412 0.07154368 -0.040028725 0.29666254
0.22596768 0.18099378 0.17300029 -0.048293855 0.19070843 0.23405798 -0.016269466 -0.008257695
-0.14343745 -0.1432198 0.1864428 -0.18026261 0.33372876 -0.32414564 -0.0018479524 0.100288585
0.09978307 0.31626472 0.015091869 -0.11853684 -0.11554642 -0.02296048 0.046841525 -0.09170298
-0.24827065 -0.16370304 0.2238611 0.0010988656 0.34915122 0.04698378 -0.11482037 0.26612914
0.20252106 -0.096415095 -0.17249858 -0.057769477 -0.26944926 0.008253236 -0.08523089 -0.042969786
-0.24174619 -0.11214736 -0.12716073 -0.04924269 0.020475172 -0.017681666 0.09635324 -0.033926986
-0.21516314 0.12630406 -0.19588114 -0.17748703 -0.21208549 -0.053246144 -0.29615164 0.14434473
0.26328588 -0.18739112 -0.042182043 -0.1245307 0.03512533 -0.0825161 -0.02471008 0.12291877
0.15159383 -0.00018009075 -0.23011293 -0.0666866 -0.023584394 -0.19140479 0.189436 0.10784792
0.19794595 0.13043188 0.121957324 0.2940467 -0.017495379 -0.14493063 -0.11587919 0.008487681
0.22199923 -0.24149202 -0.03915291 0.016642105 -0.052613724 -0.07931264 0.002539105 0.21457514
0.020089341 -0.14300129 0.23707104 -0.046035018 0.3065579 0.24898763 -0.106975764 0.21955398
-0.11941817 -0.083422214 -0.04102983 -0.049296442 0.07671711 -0.05581446 0.11067423 0.14572537
0.06404793 0.24765049 -0.023810383 0.019477325 0.19591726 0.21078958 0.035948575 -0.07612637
-0.110050805 -0.14076932 0.04595101 -0.24488012 -0.058288075 -0.009311692 0.2874476 0.22407334
0.21842743 0.322074 -0.070256464 0.24046658 0.2024984 0.052313887 0.07228292 0.1063136
0.1246788 0.002916873 -0.22504109 0.12012268 -0.11786671 0.09797482 0.04259453 -0.060293864
0.10314966 -0.20899999 0.21910588 -0.021448474 0.12136788 0.031740315 0.23213679 -0.08556846
-0.10433609 0.2301599 -0.025835868 0.107196845 0.12536773 0.18602632 -0.016078517 -0.06275384
0.28866532 0.10671403 -0.1441769 0.19264159 0.2382726 0.16850568 0.034120124 -0.06269703
00000000: 4364 123d ea72 9ebe b5eb 34be f2c6 033e
00000010: 49c3 50be 691e c63d 0099 5a3e 6260 a4bd
00000020: a375 a63e 19bd 143e 0f1d 3dbe 8d61 923d
00000030: 539c 8d3d c5a8 083e 596e 813e 3e7d 983c
00000040: ee93 18be f5bb f63d ba71 0c3e 44ba 143e
00000050: aff1 88be 5ace 0bbe d1c2 06be ddcf ffbd
00000060: 185b 6b3e bc67 b6bc 0ea6 423e dc38 23be
00000070: 1f56 e23d 296e 273e 81e8 97be 24b6 17bd
00000080: 9edb 28bd e472 b53d f467 22be 5ef0 013e
00000090: 32c4 1cbe c15e 6d3e 0ced f53d f3f9 0e3e
000000a0: 94c0 0b3d 9a99 dabd 22b1 463c 1996 a33d
000000b0: 0fd5 34be 5150 9ebd 3b15 6ebe 3c01 c33d
000000c0: 56c7 133e 7182 3dbe 6762 ebbd 1fe9 f6bd
000000d0: 769e a7bb 937c 4ebe e07d 8d3e 4aab 1b3d
000000e0: 69c8 843e eb26 be3d 03ec 543d 12d2 9b3d
000000f0: dfee 28be e6da f33c 318a 02be 5268 083e
00000100: 5fb0 a5bd 21f2 2fbe 30c5 07be c94d 18be
00000110: 01d7 64bd ec30 1b3e 3769 6f3e 4e04 b9be
00000120: 479e b13d b4f0 743a aada 133e ad2d f73d
00000130: 3d06 323e 4661 34bd 0365 7cbe 5c80 473e
00000140: 13f8 a7bd 6672 3a3e 37e6 dc3c 1c54 c93d
00000150: 433f 11bf adbc 0abe f28c ba3e 945b c5be
00000160: 2ba5 a6bc 3b42 763e caef b43e d4bc 84bb
00000170: 1e7f 31bd 7e85 923d 29f5 23bd 27e4 973e
00000180: 1264 673e 6f56 393e fd26 313e c7cf 45bd
00000190: 1249 433e e5ac 6f3e 8b47 85bc 484b 07bc
000001a0: 44e1 12be 36a8 12be ddea 3e3e c396 38be
000001b0: 7fde aa3e 6bf6 a5be fe36 f2ba 1a64 cd3d
000001c0: 115b cc3d 73ed a13e e343 773c 71c3 f2bd
000001d0: 9aa3 ecbd 9e17 bcbc e6dc 3f3d c6ce bbbd
000001e0: a93a 7ebe c5a1 27be d83b 653e d007 903a
000001f0: f3c3 b23e 1072 403d f126 ebbd 1442 883e
00000200: ae61 4f3e 4775 c5bd 78a3 30be b09f 6cbd
00000210: 41f5 89be 9538 073c 888d aebd 1601 30bd
00000220: 508c 77be 84ad e5bd 6c36 02be b4b2 49bd
00000230: 8cbb a73c 24d9 90bc d954 c53d 06f7 0abd
00000240: ba53 5cbe da55 013e 1195 48be 29bf 35be
00000250: f02c 59be a118 5abd 30a1 97be 1bcf 133e
00000260: 68cd 863e 75e3 3fbe 14c7 2cbd f409 ffbd
00000270: 94df 0f3d 33fe a8bd cb6c cabc d6bc fb3d
00000280: 6a3b 1b3e bed6 3cb9 b9a2 6bbe fc92 88bd
00000290: 0f34 c1bc 9eff 43be 83fb 413e 5fdf dc3d
000002a0: 58b2 4a3e ef8f 053e c3c4 f93d 4a8d 963e
000002b0: 7852 8fbc b268 14be 1252 edbd ea0f 0b3c
000002c0: c453 633e af49 77be cd5e 20bd 0655 883c
000002d0: 7d81 57bd aa6e a2bd 1d67 263b 96b9 5b3e
000002e0: 6792 a43c ee6e 12be c0c2 723e 378f 3cbd
000002f0: 28f5 9c3e 9df6 7e3e 1c16 dbbd c2d2 603e
00000300: 8391 f4bd 44d9 aabd e50e 28bd 11eb 49bd
00000310: dc1d 9d3d b49d 64bd 2ca9 e23d 0839 153e
00000320: 902b 833d 1798 7d3e fe0d c3bc e98e 9f3c
00000330: 899e 483e 39d9 573e d03e 133d 24e8 9bbd
00000340: 5162 e1bd d525 10be 2037 3c3d dbc1 7abe
00000350: 7abf 6ebd 1190 18bc 552c 933e 7b73 653e
00000360: 71ab 5f3e e2e6 a43e 9fe2 8fbd df3c 763e
00000370: be5b 4f3e 1647 563d 1109 943d f2ba d93d
00000380: 9957 ff3d 0229 3f3b 2c71 66be e102 f63d
00000390: 1a64 f1bd 06a7 c83d 9a77 2e3d b3f6 76bd
000003a0: 2140 d33d 1804 56be 4b5d 603e b6b4 afbc
000003b0: b98f f83d 2202 023d 44b5 6d3e 843e afbd
000003c0: 29ae d5bd 09af 6b3e bea5 d3bc 058a db3d
000003d0: 6660 003e af7d 3e3e 18b7 83bc 1685 80bd
000003e0: f1cb 933e e38c da3d 1ca3 13be d643 453e
000003f0: bcfd 733e c18c 2c3e 8bc1 0b3d 4d67 80bd

fc3.bias f4 [10]
-0.13199791 -1.1310705 -0.3928713 0.864892 0.8378199 0.13600513 0.13324718 -0.33061624
-0.07642908 0.115813404
00000000: 762a 07be ebc6 90bf 6d26 c9be 9069 5d3f
00000010: 5d7b 563f ee44 0b3e f371 083e 8846 a9be
00000020: d986 9cbd 942f ed3d
