Pytorch/model_backup/cifar_net_tensorboard_net_width_200_and_chang_lr_by_decrease.pth (torch_old, 619043 bytes, 10 tensors)

conv1.weight f4 [200, 3, 5, 5]
00000000: 7697 1ebf a2c3 d2be e2c2 bfbe fa08 52bf
00000010: 56b0 a6be 3af3 0abe 5fb3 bd3d d951 073e
00000020: 16cb 8ebe 0e44 b73e 6a34 ef3e 1f42 053f
00000030: 40a8 4e3f d2b4 963e 52ce 5b3e 9e5d 1b3e
00000040: a6fa 17bf 4c14 29bd 8e69 003f 3090 14bf
00000050: 880e 503f a89d 9fbe e666 95be b38d 283f
00000060: 1cce 18bd a9ce 9e3b a6bc bd3e 7a52 b53e
00000070: 6cf2 1abe 8c9a f73e d119 123e de09 e93e
00000080: 19af a53e f02a 2d3e 0336 4f3f 4742 673d
00000090: 67b4 763e f827 263f a637 0e3e 075c 9e3d
000000a0: 8a79 6cbe c422 90bf 7403 14be 0627 943e
000000b0: 1c4c 50bf b7dc bf3e c7e6 31bf 3477 82be
000000c0: bcfd b93e 7b31 3c3d 9af7 3ebe 6b88 65be
000000d0: df80 80be 1bee 02bf 1103 f1bd ea25 60be
000000e0: 439f 8cbe 22b2 42be 1694 07bf 8eb7 923d
000000f0: bd31 bd3c 595a d3bc acb5 473e d0df 17be
00000100: b67e 7ebe 64b3 a5be d884 79bf 9fb8 b4bc
00000110: 1782 a13e 125a 4fbf db2a 603f b4b9 1cbe
00000120: 6e0f 363e 04ed 923f 77a2 153f 3ba1 223d
00000130: d217 9abe 7487 41be 6dd9 6ebd ec86 be3d
00000140: d6c6 ccbd 06c0 8fbe 6445 c1be c2a6 733d
00000150: c858 b13e 0139 c0be a30d 2cbe 9e26 d33c
00000160: 1578 f73d 4d62 bf3e b82d 3d3c d466 f33e
00000170: 85f1 f13e 3afb f73e 3dc0 7c3e f946 a93e
00000180: a5ed f83e 9197 023f 9fb3 d23e ad6b 68bd
00000190: 2774 d43d 0d87 c1bd b306 763d 9407 173e
000001a0: 7d11 06be caec fbbd 1e68 0abd a6d3 96bd
000001b0: 8e90 fc3d 7bfd 813e 6f9a d7be 560f f1bd
000001c0: 72ad d4bd 0613 5cbe b395 f4bd 1569 73be
000001d0: 4a49 4bbe d1a4 37be fb18 e9be b99e 03bf
000001e0: 943f 2cbe 6522 8fbd 8dcd 06bf 7e06 2abf
000001f0: 682a 33bf 4973 573e c603 053e 9249 b63d
00000200: b77b a23e 6dd5 09be 7d76 ae3d a48a aa3c
00000210: 0b0c 4e3e 002c e73e fbda ee3e d801 44be
00000220: eba7 1e3e f22f 983e f159 bf3e 2997 3e3e
00000230: b506 da3c 876f 0d3e df6c 5b3e 1be4 023e
00000240: 6ad1 d43c e63a c43d 2254 273c f7a4 15be
00000250: 79cf b7bd 7cf7 46be bcfe 2c3d b289 b63e
00000260: 8955 053d 437e f63e fa68 63bd 8992 54be
00000270: ad25 143e 9f76 efbe c064 a73e de45 c9bd
00000280: d229 c83c c554 3a3e 26ca 30bf f93a 323f
00000290: 8471 23be 1b94 cc3c b5b4 1dbe ac9b 3ebf
000002a0: 6ab9 423f fac0 b8be 1f40 8fbc 3d66 91be
000002b0: f18e dabe 4d3d 4b3f d2bc 5bbd 3013 17bc
000002c0: cf9a 87be 6617 42bf e5ba 1b3e 807f b63e
000002d0: ce78 873e 60c1 35be a839 8ebf 034f 053f
000002e0: 5994 d53e ad08 343f e2c2 cebc 8df0 9fbf
000002f0: 88ba 953f 2716 d83e e3ae 1b3f 20d1 99be
00000300: 5179 90bf cb39 663f 60ff 3b3e b4e0 523f
00000310: 47d3 03bf f397 7cbf 6a2c 073f 5ef4 77bb
00000320: d098 b83c 9785 7fbd 65ad d6be 2097 303e
00000330: 3176 bebe 1368 9d3e 1dad ad3e 4fe5 13bf
00000340: 8395 0b3f ba22 3ebe e88f db3e 3a11 933e
00000350: 226b 7bbf 1249 603f d531 c1be e758 763e
00000360: 4fb3 143e 238b 65bf cbb3 113f ddb7 c0be
00000370: fe4c c33e 68f1 94be bf48 1ebf 48f0 153f
00000380: bc8b 99be 8630 edbe f007 a0be edde 213c
00000390: 2a2e f93d cf5e 6f3e c6c0 dfbe f62e 11bf
000003a0: 4a9d b93d a5e9 783e 54de 933e 5b90 1bbe
000003b0: 1c82 20bf 0197 96be 4843 d93d 13a3 543e
000003c0: 278d 2d3c 3449 82be 6557 d0be f44e 10be
000003d0: 18f1 ccbd e9f5 203e d31a c1be 269b 04be
000003e0: 0f2b e1be 9c0c 17bf 0981 86bd 36c4 95bc
000003f0: 8428 113e fb9b 913e f3c2 3f3d 77e8 cbbd
-0.6194986 -0.4116488 -0.3745337 -0.8204495 -0.3255641 -0.13569346 0.09262728 0.13214816
-0.27889317 0.3579411 0.46719676 0.5205402 0.8072548 0.2943483 0.21465424 0.15172431
-0.59366834 -0.041279122 0.50161064 -0.5803251 0.8127217 -0.3117497 -0.29180068 0.65841216
-0.037305936 0.004846413 0.3705799 0.35414487 -0.15131539 0.48360097 0.1426766 0.4551534
0.3236015 0.1691091 0.8094179 0.05645969 0.24092256 0.6490474 0.13888416 0.077323966
-0.23093238 -1.126061 -0.14454442 0.28936023 -0.81366134 0.3747308 -0.69492763 -0.2548157
0.36326396 0.045945626 -0.1864914 -0.2241532 -0.2509832 -0.5114457 -0.11768163 -0.21889463
-0.27465257 -0.19013265 -0.52960336 0.071639165 0.023095006 -0.025799917 0.19502896 -0.14831471
-0.24853024 -0.32363427 -0.9746833 -0.02206069 0.31544563 -0.8099681 0.8756539 -0.15305215
0.17779323 1.1478581 0.58451027 0.039704543 -0.30096298 -0.18899328 -0.058312822 0.09303078
-0.099988624 -0.2807619 -0.37748253 0.059485205 0.34638047 -0.3754349 -0.16802077 0.02577525
0.12083451 0.37379685 0.011546545 0.4753939 0.47254577 0.48433858 0.24682708 0.3306196
0.48618808 0.5101252 0.41152665 -0.056743313 0.10373717 -0.09449587 0.060064983 0.14748985
-0.13092609 -0.12301023 -0.0337907 -0.073645875 0.12332259 0.25388703 -0.4211001 -0.11770503
-0.103846446 -0.21491632 -0.11942615 -0.23770554 -0.19852176 -0.17933966 -0.4552687 -0.51414067
-0.16821128 -0.06988982 -0.52657396 -0.66416156 -0.6998658 0.21040072 0.1298972 0.08900751
0.31735012 -0.13460322 0.085186936 0.020818062 0.20121782 0.45150757 0.46651444 -0.19141328
0.15493743 0.2972408 0.37373307 0.1861235 0.026614526 0.13812076 0.2142825 0.12782328
0.025978763 0.095815465 0.01021293 -0.1461371 -0.08975119 -0.19430345 0.04223512 0.35651928
0.032552276 0.48143205 -0.055520035 -0.20759024 0.14467497 -0.46770188 0.32694054 -0.09827779
0.024434004 0.181964 -0.69058454 0.69621235 -0.15961272 0.024972966 -0.15400966 -0.74456286
0.7606417 -0.3608473 -0.01748663 -0.28398314 -0.4268718 0.7939041 -0.05364687 -0.009220883
-0.26485297 -0.75816953 0.15208013 0.3564415 0.26459354 -0.17749548 -1.1111345 0.5207369
0.41714743 0.7032574 -0.025239412 -1.2495285 1.169755 0.422044 0.6081373 -0.30042362
-1.1287023 0.89931935 0.18359137 0.8237412 -0.5149426 -0.98669356 0.52802145 -0.0037834863
0.022533804 -0.06238326 -0.41929165 0.1724515 -0.37199548 0.30743465 0.33921137 -0.5777177
0.5452501 -0.18567935 0.4288323 0.2872408 -0.98210347 0.87611496 -0.3773333 0.24057351
0.14521526 -0.8966543 0.5691497 -0.37640277 0.38144678 -0.29090428 -0.6182975 0.58569765
-0.2998942 -0.46326083 -0.31256056 0.00987981 0.12167008 0.2337601 -0.43701762 -0.5671228
0.09063204 0.24307878 0.2888056 -0.15191786 -0.6269853 -0.29412082 0.10608536 0.20765333
0.010592735 -0.25446475 -0.40691677 -0.14092618 -0.100069225 0.15718807 -0.37715778 -0.1294981
-0.43978164 -0.59003615 -0.0656758 -0.018282037 0.14175612 0.28439316 0.046816777 -0.099564485

conv1.bias f4 [200]
00000000: 6b30 d8bf e34b cebf 79b9 9abf fc2f 1cc0
00000010: 7b20 33bf e728 acbf 32ba afbf f3c8 88bf
00000020: f35c c1bf 4b85 dabf 281a aabf cf14 d6bf
00000030: 1e31 9fbf 80fc 54bf 702e ccbf 42df a4bf
00000040: 5e7b 13bf 54fe 9bbf 8ba9 c2bf 76ba d5bf
00000050: e875 40bf 7b55 72bf 504d 92bf ba33 62bf
00000060: 5144 7dbf e521 b3bf 7514 bcbf 0d90 89bf
00000070: 9b44 dbbf 09f6 43c0 3e0c 91bf 41e8 8fbf
00000080: 146a b0bf 9f13 1cc0 8ce4 e6bf be7e 94bf
00000090: 0771 eabf cb22 d1bf b186 b2bf ad2e b2bf
000000a0: d29d b6bf 4573 b5bf 4951 b3bf f117 01c0
000000b0: 6f47 2bbf 2fac aabf 353a dcbf 3f9b bebf
000000c0: d50a 15c0 0f0f 89bf 914e dabf 5118 2cc0
000000d0: 20ee bebf eef8 81bf c02e a8bf 6859 fabf
000000e0: cac5 97bf e09b 9dbf c684 99bf bb1b e7bf
000000f0: cd93 86bf dae8 ccbf 1f37 66bf e4f0 03c0
00000100: abb0 d8bf 26fe 8abf ea35 f7bf 3602 eebf
00000110: 5e71 aebf 268d 15c0 ce23 ffbf eda2 87bf
00000120: 5d36 fbbf a32e 95bf 5e97 babf 131a 8dbf
00000130: 8f9a 14c0 6b52 82bf 7074 75bf deef c2bf
00000140: a57f 69bf c9c0 efbf b3a1 b0bf 34c0 a9bf
00000150: 94f0 0bc0 c845 07c0 7e25 23c0 9aa0 6dbf
00000160: df2b 60bf b5fa 37c0 2887 7fbf 034b a8bf
00000170: 14a1 0bc0 d873 a0bf a774 90bf 9a79 b6bf
00000180: c4a0 e4bf 4365 92bf f801 cbbf 2ec3 bbbf
00000190: d2d6 71bf c62a d5bf be4d 5ebf 26fb 86bf
000001a0: 2538 f1bf ea05 a2bf 233e 9fbf a17a 99bf
000001b0: b905 97bf b5ee e4bf 6b24 71bf f3d6 45bf
000001c0: c509 9bbf 7b66 c6bf 4319 97bf b36b 81bf
000001d0: 7dfb f8bf 4ff1 e4bf 0421 f0bf 43d7 8dbf
000001e0: 5d0b c5bf fa5c 7abf 9a95 9fbe 8a26 6dbf
000001f0: a7ff 83bf 1fe0 91bf ff07 dfbf 1a01 56bf
00000200: ad00 b3bf 3474 9bbf ff18 81bf de12 84bf
00000210: 0a60 7dbf a28a c6bf 7939 44bf 9010 96bf
00000220: bfc7 e5bf 1f4f d3bf 95af 3fc0 337b aebf
00000230: 3a8a 05c0 7755 11c0 22fa 85bf a73f cfbf
00000240: cb46 aabf 677a 9abf d437 16c0 2fb1 b7bf
00000250: be06 54bf 93d0 95bf a587 94bf c809 c3bf
00000260: 5688 9ebf 0bd2 cabf 646f 5dbf 2ee4 80bf
00000270: dd65 82bf 2f0b 1d3e ea4a 94bf 62d2 04c0
00000280: 790d 1fc0 df49 c3bf c3f6 acbf 3d6b 92bf
00000290: e575 ddbf aea1 b5bf fa58 80bf 2503 c0bf
000002a0: 16a3 ccbf 176a fbbf 6316 87bf 3e28 c6bf
000002b0: 647b 99bf 083e 0ac0 f90c a4bf f555 85bf
000002c0: 9b2a 8fbf f6ee efbf 0a3e 99bf 46ef 1dc0
000002d0: c6ef 66bf 24a3 7ebf b935 d9bf 568f b6bf
000002e0: 7044 e4bf 8c24 05c0 a904 bbbf 0fc0 d1bf
000002f0: 6570 26bf 61a0 d1bf 5663 72bf a56c 13c0
00000300: b6ab 96bf 6b17 64bf 9a55 f7bf 519c c0bf
00000310: 70aa cdbf 98a8 2ac0 1e9b 0ec0 5ce7 a4bf
-1.6889776 -1.6116909 -1.2087852 -2.4404287 -0.69971436 -1.3449982 -1.3728697 -1.0686325
-1.5106491 -1.7071928 -1.3289232 -1.67251 -1.2436864 -0.83197784 -1.5951672 -1.2880633
-0.5761012 -1.218699 -1.520799 -1.6697528 -0.7517991 -0.9466168 -1.1429844 -0.8836018
-0.9893237 -1.3994719 -1.4693743 -1.0747086 -1.7130312 -3.0618918 -1.1331861 -1.1242753
-1.3782372 -2.4386976 -1.8038497 -1.1601179 -1.8315743 -1.6338743 -1.3947355 -1.3920494
-1.4266913 -1.4175802 -1.4009181 -2.0170863 -0.66905874 -1.3333796 -1.7205263 -1.4891127
-2.3287861 -1.070772 -1.7055227 -2.6889842 -1.491642 -1.0154092 -1.3139267 -1.9558535
-1.1857235 -1.2313194 -1.1993644 -1.8055338 -1.0513855 -1.6008561 -0.8992786 -2.0615778
-1.6928915 -1.085881 -1.9313328 -1.8594425 -1.3628347 -2.33674 -1.9932802 -1.0596596
-1.9625965 -1.1654857 -1.4577444 -1.1023582 -2.3219335 -1.0181402 -0.95880795 -1.5229452
-0.91210395 -1.8730708 -1.3799347 -1.3261781 -2.1865587 -2.113634 -2.5491633 -0.92823184
-0.8756694 -2.874677 -0.9981561 -1.3147892 -2.1817064 -1.2535353 -1.12856 -1.425586
-1.7861562 -1.1437153 -1.5859976 -1.4668939 -0.94468415 -1.6653678 -0.86837375 -1.0545394
-1.8845259 -1.2658055 -1.2440838 -1.1990548 -1.1798621 -1.7885348 -0.94196194 -0.7728111
-1.2112356 -1.5500025 -1.1804584 -1.0110992 -1.9451748 -1.7886142 -1.8760076 -1.1081318
-1.5394093 -0.9779812 -0.31168824 -0.9263693 -1.0312394 -1.1396521 -1.7424315 -0.8359543
-1.3984581 -1.2144837 -1.0085753 -1.0318258 -0.9897467 -1.5511057 -0.76650196 -1.1723804
-1.7951583 -1.6508521 -2.9950917 -1.3631347 -2.0865617 -2.2708414 -1.046696 -1.61913
-1.3302854 -1.2068604 -2.3471575 -1.4350947 -0.8282279 -1.1704277 -1.1603895 -1.523736
-1.2385356 -1.584535 -0.86498094 -1.0069635 -1.0187336 0.15336297 -1.1585362 -2.0753407
-2.4851973 -1.5256919 -1.3512806 -1.1438977 -1.7301604 -1.4189966 -1.0027153 -1.500096
-1.598727 -1.9641751 -1.0553707 -1.5481031 -1.1990781 -2.160036 -1.2816459 -1.0416857
-1.1184877 -1.87448 -1.1972058 -2.467729 -0.90209615 -0.9946768 -1.696952 -1.4262493
-1.7833385 -2.0803556 -1.4610797 -1.6386737 -0.6501525 -1.6377069 -0.94682825 -2.3035061
-1.1771152 -0.89098233 -1.9322999 -1.5047704 -1.6067638 -2.6665401 -2.2282176 -1.2883105

conv2.weight f4 [16, 200, 5, 5]
00000000: 0668 0fbc 365e 91bd 7b09 33bd 16df d9bd
00000010: 0c6f 9c3e 6237 b2bd 8a29 8abd c983 26be
00000020: 2b4c d43b cd9a dabb 283f 0cbd d357 2c3e
00000030: adb8 033e a9a5 a6be 22ca 52bc ff2f b43e
00000040: cfe8 143e 0eeb 9ebc df1b 4e3e bed4 d93b
00000050: 0656 d3bc 24e2 dcbd 0f37 bfbd 8fa4 7bbd
00000060: f5a3 0cbe 5004 9e3d 7dfb 863e e8b4 b1bd
00000070: d5c9 24be 8c3a cabc 70ee dc3a b64b c8bd
00000080: 841c 1abe 4ab2 2fbe ea4c 10be 27c2 0d3e
00000090: 82fc fbbd ce6b dd3a c72f 083e 0524 623e
000000a0: 30c7 44bd eec9 10bc 7317 35be 34f8 883d
000000b0: cbb9 3ebe 91b1 b6bc 800d fbbc b211 5fbe
000000c0: ba90 28be 4e33 c6be a56c e1be 194e d2bd
000000d0: e5c0 963e 60d7 b83e 411b 9dbe 3c9f 123f
000000e0: cc74 103e 88e2 e93c c02c 10bd ef67 e5bd
000000f0: b9ec 1f3d 7b61 8bbd 1f04 6ebe 53ee 11bf
00000100: e711 9e3d 3aef 7c3d 1b42 b2be 7186 41be
00000110: 50ff 9ebe 2336 9fbe d434 f23e 8599 06bf
00000120: 7819 fe3d 13e9 fc3e 444d 733e 0cdf 843e
00000130: 6295 ea3d 7231 96be 0ef5 7b3c f9fe 6cbe
00000140: cb96 f7bc 1de9 48be d1c6 a9be 4e4b 13bd
00000150: 3715 083d 24e1 123e 48cf 04be 12aa 2abe
00000160: 481b 8abe 6265 02bd 3e00 e73e a849 b6bc
00000170: 3f4b 2abd c737 eabd 049b 993c de81 3b3c
00000180: 4a2e 15bd 042e 86be d39d 98be 5196 2b3e
00000190: 04e1 933e 36bb a0bd 990b 69be a75e 79bd
000001a0: 9e5b 4d3e 8a90 dd3e 5f99 603e ac0a 153e
000001b0: a67a 5f3e 0268 9f3e 5f3f ee3d cf63 413e
000001c0: 1704 2cbe cef4 6ebe 55d3 523d 6064 853e
000001d0: f194 153e 9b29 6f3e 8beb af3e aea9 eabc
000001e0: 6647 44be c45e 5abd 86cb 02be f1f1 73be
000001f0: 7e79 9bbc 3f59 893e b45b 893e 46ca 743d
00000200: ff2e aa3e 970b aebe b9de 1d3e c1fb 75be
00000210: ef3d a83e 83aa 093c cf47 1e3e d942 a1be
00000220: 183c 55be 5754 033d 5471 33be 27f4 993e
00000230: 7cb7 833d a048 02be e88a f9bd f479 99be
00000240: 5e49 e83d 3fb3 793e 593b 0ebe 6622 3b3e
00000250: ab96 843e 7876 493e a430 743d 6535 263e
00000260: 8af0 25be 4a13 ae3d 7f57 b2bd ea7f 33bd
00000270: bf82 dfbc 60f0 b43d 8b7b c73c 221e 0ebe
00000280: 17db 933e 8acc 033e 0a80 c3bd 671b 62be
00000290: 2383 e23b 16f3 f23d e665 1cbe 0f91 4ebe
000002a0: e904 a3bd 5bc6 02be 5ec0 2fbd e807 74be
000002b0: a125 463d 9206 48be cfc2 99be 2c66 433e
000002c0: f99a 7abd 19a4 02bf 137d 50bd c6ec 07be
000002d0: f433 f73c 8a71 503e a7e5 fdbd e7fe 96be
000002e0: aa91 93bd 120a 623e 6943 373e fa13 a1bd
000002f0: 7551 e9be ef88 dcbc 58a4 9d3e 87f4 623e
00000300: 074c 113e b8b9 a4bd bf36 843c 5d16 87be
00000310: 7947 4b3d 5c31 b23d f44c e53e 44fe 10be
00000320: 8d67 b9be 2a0a 6fbe 4978 54bd 3d2b 0ebe
00000330: 650a 10be ad42 c6bd d0dd 073e 74c5 3ebd
00000340: 40ed 5f3d 03d3 523d c780 0b3e c299 753e
00000350: 4f10 3c3d 2987 383d 91df aebd 772d 86be
00000360: 3776 9bbe 6b00 e5bd b69d 513e 0edd c0bc
00000370: 5b9b b9be da5a d33d b295 143e f8f9 5b3e
00000380: 4919 01be bfad febd f302 b7bd 952d 93be
00000390: 5eac 11be 7083 593d 3f20 f33d 3af7 0d3e
000003a0: 5944 f6bd 1569 3a3d 8976 9b3e 2027 dd3d
000003b0: f645 503c dd37 b9bd d340 03bd ca06 3b3e
000003c0: fd9a 96bd 442b fdbd fed3 12be 0632 1eba
000003d0: 1868 f63d 88ca 25be 45fd bebd 3291 50bd
000003e0: 1b49 ccbd 91e7 ffbd a989 ae3d 6461 03bd
000003f0: 9d05 eebb 2121 4abe 7316 98bd 69fc 9d3d
-0.008752828 -0.070980474 -0.043710213 -0.106382534 0.30553472 -0.0870197 -0.06746204 -0.1626121
0.0064788065 -0.0066712857 -0.034239918 0.16830377 0.12863417 -0.32548264 -0.012865575 0.35192868
0.14541934 -0.019399192 0.2012782 0.0066476753 -0.025797855 -0.107853204 -0.093366735 -0.061436232
-0.1373442 0.07715666 0.26363745 -0.08677083 -0.16092618 -0.02468612 0.0016855728 -0.09780066
-0.1504994 -0.17157856 -0.1409184 0.13843594 -0.123040214 0.001689309 0.13299476 0.22084053
-0.048041523 -0.008837206 -0.17684726 0.06687966 -0.18625562 -0.022301467 -0.030646086 -0.21784094
-0.16461459 -0.38711017 -0.44028202 -0.10268802 0.29444042 0.36101818 -0.30684856 0.5727422
0.14107054 0.028550401 -0.035198927 -0.112014644 0.039044116 -0.06805702 -0.2324376 -0.5700428
0.07718258 0.06175158 -0.3481606 -0.18898942 -0.31054163 -0.3109599 0.4730593 -0.52578
0.124072015 0.49396572 0.23759943 0.2595142 0.11454274 -0.293346 0.01537825 -0.2314414
-0.03022327 -0.19620176 -0.33159497 -0.035960488 0.033223357 0.14343697 -0.12969697 -0.16666439
-0.2697394 -0.031834967 0.45117372 -0.022251919 -0.041575667 -0.1143642 0.018750675 0.011444537
-0.036421098 -0.26206982 -0.2980791 0.1675656 0.2888261 -0.07848208 -0.2275833 -0.060881283
0.2005448 0.43274337 0.21933506 0.14554852 0.2182413 0.3113404 0.11633181 0.1888573
-0.16798435 -0.23335573 0.051471073 0.26053143 0.14607598 0.23355715 0.34359393 -0.028645363
-0.19167861 -0.05331303 -0.1277295 -0.23822762 -0.01897883 0.26825902 0.26827776 0.059763215
0.3323898 -0.33993217 0.15416993 -0.24021818 0.32859752 0.00840247 0.1545708 -0.31496313
-0.20823705 0.032062855 -0.175237 0.30069086 0.06431481 -0.12723017 -0.121846974 -0.29975855
0.11342119 0.24384783 -0.13889827 0.1827484 0.258962 0.19674098 0.0596167 0.16231306
-0.1620504 0.08499773 -0.08708095 -0.04382316 -0.027284024 0.088349104 0.024350902 -0.13878682
0.2887809 0.12870994 -0.09545906 -0.22080766 0.0069126054 0.11862771 -0.15273246 -0.20172523
-0.07959921 -0.12770979 -0.042908065 -0.23831141 0.04837573 -0.19533756 -0.3003144 0.19081944
-0.06118295 -0.51031643 -0.05090053 -0.13273916 0.03017614 0.20355812 -0.12397318 -0.2949135
-0.072055176 0.22074154 0.17896809 -0.07865138 -0.4556996 -0.026920764 0.30789447 0.22163592
0.14189158 -0.080432355 0.016139386 -0.2638425 0.04962871 0.08700821 0.44785273 -0.14159495
-0.36211815 -0.23343721 -0.051872525 -0.13883682 -0.14066465 -0.09680686 0.13268209 -0.046575025
0.05466962 0.051470768 0.13623343 0.23984435 0.04591399 0.045050774 -0.08538736 -0.26206562
-0.30363628 -0.1118172 0.20470318 -0.023542907 -0.3625134 0.10320063 0.14510229 0.21482074
-0.12607302 -0.12435483 -0.089361094 -0.28745714 -0.14225909 0.053103864 0.11871385 0.1386384
-0.12024755 0.04551037 0.30363873 0.10798478 0.0127119925 -0.09043858 -0.032044243 0.18264309
-0.073537804 -0.12361768 -0.14338681 -0.0006034676 0.12031573 -0.16190541 -0.09325651 -0.05091972
-0.09974881 -0.1249534 0.0852235 -0.0320753 -0.0072638527 -0.197392 -0.07426157 0.07714159

conv2.bias f4 [16]
00000000: 6bfa 24bf 022d b5bd 63f8 823e b296 a53e
00000010: a118 0840 bac3 f0bd 1556 b8be ef7f 393f
00000020: 98a0 2c3f b1ad 7ec0 8362 79bf da93 0cc0
00000030: 823d 3e40 874a 1ec0 eb0b 64c0 7113 bd3f
-0.6444461 -0.08846475 0.2558013 0.32341534 2.1265032 -0.11756082 -0.36003175 0.72460836
0.67432547 -3.9793513 -0.9741594 -2.1965241 2.9725041 -2.4732988 -3.5632274 1.4771558

fc1.weight f4 [120, 400]
00000000: 0ff6 06bf f225 12bf f4ba 65bf 2e12 0bbf
00000010: 4a97 6b3e c3df 54be 0660 cebd dfcd 01bf
00000020: b37b 84be 1a50 243f 6b45 33bd 69eb 8abc
00000030: 0613 433e 1e25 89bc 281d 34bf de2b b5bc
00000040: d2d9 02be ab26 7dbc 56b0 afbd e746 fcbe
00000050: 4de2 d93e 5e68 553d e61c 1fbe 1b4e c6be
00000060: 84d9 9dbe b118 0dbf 699f 3ebd 36b1 c3be
00000070: 6489 35bf 72e1 b33e e839 91be 9000 d23e
00000080: e984 a73d 950a 03bf ef59 d83b 3379 9abe
00000090: 2ee3 213f 6228 de3e 3b65 c1be f668 a2bc
000000a0: f5fb b63e 3db5 d53d 806f 2fbe 6b84 f93e
000000b0: af7d d7be e73f 153f 66c5 873d 4e01 f23d
000000c0: 2c36 73bd a4bd 31bf 6b18 19bf 954f 86be
000000d0: af82 a2bd 5a76 a83e 58ef 3a3c fcaf e0be
000000e0: 63f1 d1be 4bee 27be 5134 8e3e ad7c 9ebd
000000f0: b3e0 0e3e b2b0 68be 6fea 8cbe 3c56 e63c
00000100: 841c b6bd 1300 d03e a46a 27be 42aa d2be
00000110: 6ec5 e53d 8dd5 9f3e c3d2 c5bc bdb0 27bf
00000120: 50b3 ccbe 25aa 613e 995b 16bf a32a 98bd
00000130: 2dcc 76be 5e8d b03e 0a0e 29bf 7981 103f
00000140: 62b1 3bbe 884c f7bd 9b91 8cbe f07c 5ebe
00000150: fd2b 143e c35f 1abe 60c9 663f 2a59 4e3e
00000160: eb3b 45be 5b14 c73c cb2f 0f3f c1fe 15bf
00000170: 1da4 da3d 53f2 e4bd e580 6cbd 296c e1be
00000180: c309 cfbe a442 18bf 4e73 35be 91e0 18bf
00000190: 4d15 d43e fb68 033e 6c63 a1be 84e3 853e
000001a0: 6599 1dbd ec08 c53e 1cd7 34be 0e37 89be
000001b0: f82c d6be d1e9 c13e d73d 2b3e e526 b53d
000001c0: cd08 26bd e98a c9be 7ad8 883e e093 a0be
000001d0: d71e 0bbd faff a9be 38dc 40be 15d6 59be
000001e0: bbcf 933e dd3f 57be 419b d13e 6215 4d3c
000001f0: 9496 fb3e 1257 a13d 13ca d93e 4523 97be
00000200: 15ac 093d 1709 33bf 6c3f 8ebe 75ba 73be
00000210: 110d e33d f259 293e d45e 43bf 0355 aa3d
00000220: 655f 80be e29e 8ebe d57e 94be 7652 2abe
00000230: 04b5 d1bd 611f c13e cef8 8c3e d286 9ebe
00000240: 743e 4abb 3a43 4abc 9186 d53e d0c8 3e3d
00000250: 5329 3abe 2201 703e 9501 74be e1eb 21bf
00000260: 1181 dbbc 5999 4bbd 39cc 51bf d832 1abf
00000270: 1cef 0b3e bbfa 1f3f fffa 623d 5737 29be
00000280: a0b7 41bf 779c ee3d 75db 87bc 849d 203e
00000290: 973b d6bd dfcf 51bf e248 cf3d 6b46 4abf
000002a0: 4f56 be3e 8849 45bd 0b5e 48be b063 903d
000002b0: 9ba8 503e 1c91 8ebd b998 e23e 4f8e 193f
000002c0: ff5c 613f 62cf 123f b097 1ebe 2dee a7be
000002d0: 2f31 1fbd 34e5 5b3e 8e85 fe3d 8a88 793e
000002e0: 7e99 263e 847b bfbd d519 1ebd 6790 d23c
000002f0: fadd 3f3d 6cbb 0cbe a25a 1abe 37c1 84be
00000300: 6240 923e 393c 18be 523a 193c 231f c03d
00000310: 54c9 80be d11e c63e 69a1 743e 8ab5 0d3f
00000320: 0c7a ddbc da7a a8be ac9f 56be b0fe a33c
00000330: 12ba 093f 873c 06be bb98 a0be 8e00 70be
00000340: d8cf 7c3e 80fa c6bc e316 2cbf 8a1c db3d
00000350: 8288 0abd 3029 37bd e11d 703d 7d20 013f
00000360: da81 293f 307d ecbd a4d9 533e e0ff 7e3e
00000370: 52da 5b3e d9b2 253e 1adb 123e 4a25 e23e
00000380: 62d3 193f dd23 eebd 7138 c43e f06d a13d
00000390: 1993 743d ae7c ef3d 5b3a 19be b52c f13d
000003a0: 4260 fd3e 95bf bebe 18a3 c2be 8357 45bf
000003b0: a1c0 213e e22e 943c 7674 7bbe 31b5 283e
000003c0: 6046 3ebf 5e88 83be 3474 8ebe de46 eabe
000003d0: 11f4 283e 3e36 24be c200 b7bd 13f2 78be
000003e0: ce7a d2be 1232 9dbe 169e a6bd c946 b03e
000003f0: 0046 943e 1657 c6b9 73b3 f0bc 921d 6fbe
-0.52719206 -0.5708915 -0.8973839 -0.54324615 0.23006931 -0.20788483 -0.10076909 -0.5070476
-0.25875625 0.64184725 -0.043767374 -0.016957955 0.19050226 -0.016741332 -0.7035699 -0.022115644
-0.12778404 -0.015451114 -0.08578555 -0.49272844 0.42555466 0.052101485 -0.15538368 -0.38731465
-0.30830014 -0.551158 -0.046538744 -0.3822114 -0.70912766 0.3513294 -0.2836449 0.41016054
0.081796475 -0.5118802 0.006602518 -0.30170593 0.63237274 0.43390185 -0.37772545 -0.01982544
0.35739103 0.10434959 -0.17132378 0.4873384 -0.42088076 0.5830063 0.06629448 0.11816655
-0.059377834 -0.69429994 -0.59802884 -0.2623259 -0.07935082 0.32902795 0.011409603 -0.43884265
-0.41004476 -0.16399495 0.2777429 -0.07738624 0.13952903 -0.22723654 -0.2752261 0.028117292
-0.08892158 0.40625057 -0.16349274 -0.4114552 0.11219297 0.31217614 -0.02414835 -0.65504056
-0.39980555 0.22037561 -0.58733517 -0.07430007 -0.24101324 0.34482855 -0.66037047 0.5644756
-0.18329385 -0.12075144 -0.27454838 -0.21727347 0.14469905 -0.15075593 0.90151024 0.20151201
-0.19261138 0.024301698 0.559323 -0.5859185 0.106758334 -0.11179032 -0.05774011 -0.44027832
-0.40437135 -0.59476686 -0.17719766 -0.5971766 0.414225 0.12833016 -0.31521165 0.26150143
-0.038476367 0.3848337 -0.17660183 -0.26799816 -0.41831183 0.378737 0.16722809 0.08845309
-0.040535737 -0.39363793 0.2672766 -0.3136282 -0.033964958 -0.33203107 -0.18834007 -0.21273072
0.28869423 -0.21020456 0.40938762 0.012517305 0.4913832 0.078779355 0.42536983 -0.29519096
0.033611376 -0.69935745 -0.27782762 -0.23801596 0.110864766 0.16538218 -0.7631657 0.08316996
-0.2507278 -0.27855593 -0.29003015 -0.16633019 -0.10239604 0.37719253 0.27533573 -0.30962235
-0.003085998 -0.01234513 0.4170423 0.04657823 -0.18179826 0.23437932 -0.23828728 -0.6325055
-0.026794942 -0.04970679 -0.81952244 -0.6023383 0.13665432 0.6249196 0.05541515 -0.16525017
-0.75670815 0.11650937 -0.016584137 0.15685087 -0.104605846 -0.8195781 0.10121323 -0.790137
0.37175223 -0.048165828 -0.19567125 0.07050264 0.20376818 -0.06961271 0.44257143 0.5998277
0.88032526 0.5734769 -0.15487552 -0.327989 -0.038865265 0.21474153 0.12427817 0.24368492
0.1626949 -0.093497306 -0.038598854 0.025703622 0.046842553 -0.13743371 -0.15073636 -0.2592866
0.28564745 -0.14866723 0.009352284 0.09380939 -0.251536 0.38695386 0.23889698 0.5535513
-0.027035736 -0.32906228 -0.20959347 0.020018905 0.53799546 -0.13109027 -0.31366524 -0.23437712
0.24688661 -0.02428937 -0.6722242 0.10698803 -0.03382159 -0.044717014 0.058622245 0.504402
0.6621376 -0.11547315 0.20688492 0.24902296 0.21470001 0.16181506 0.14341393 0.44169074
0.6008817 -0.11627934 0.3832431 0.07882297 0.059710596 0.11693703 -0.14963667 0.11776105
0.494875 -0.3725554 -0.38015056 -0.7708666 0.15796138 0.018088762 -0.24556145 0.16475369
-0.74326134 -0.25689977 -0.2782303 -0.45757192 0.16499354 -0.16036317 -0.089356914 -0.24311094
-0.41109318 -0.30702263 -0.08135621 0.34429005 0.28959656 -0.00037830387 -0.029382443 -0.23351124

fc1.bias f4 [120]
00000000: 1c0a 9abe a0fc 933e 3758 3ebd 4344 223d
00000010: 45d6 453e d51b e83d 0100 c3bd 5fa6 3e3f
00000020: 28de 273e c0c9 243e 9fb5 86be 59b8 813e
00000030: a848 983e 667c cbbd d28e b93d 0491 fb3e
00000040: 721d ca3e 6e9d b93d 029c 6d3d 3a37 15bd
00000050: a52b bebe 44e6 863d 76d8 433e ce9a 40be
00000060: ff6d 79be 6475 f1bd 4a6a 96be 20eb 7d3d
00000070: f266 5cbe b70a 3c3e 2c4f e43d a519 573e
00000080: 6a0f b63d cabd 4bbc b204 9c3e 5f5a 913d
00000090: 67b9 88be 842e 5bbe 1552 9d3e 5279 c03d
000000a0: 0d8f dd3d 57d5 853e d899 063e 50f2 33be
000000b0: 47b4 d93d b249 fabe 9e78 4a3e 7080 03be
000000c0: 5fc8 003c 7f7e ca3d 89ec 07be 0eeb 91be
000000d0: cc8a 94bc c401 bc3e 1488 80be 7810 e5bc
000000e0: 6bea 94be 176f 30be fef5 093e 7213 eebe
000000f0: 13b1 9e3e cef5 47be 5bdd f93e e09a 7a3e
00000100: 0beb 26be c9b1 293e 2ce9 a53e 018b 4bbe
00000110: 55bb fbbd 747a 51be bdf1 b83d db84 a83e
00000120: 9c88 80be 440e 8c3d dcf0 873e 71b5 9abe
00000130: 94ae 103d ce45 b4bd e50c 4e3e 74ec cbbe
00000140: 4f0e 9b3d 6a43 2dbe 24c6 0ebe db10 d03d
00000150: 6232 9d3e 4b6a 1ebe 4010 0cbe d1ef f2be
00000160: e2c5 f13d 50fd 243e 463c 7dbd dc47 c6be
00000170: 727a 5dbd 4419 5bbe a855 e6be 61a0 08be
00000180: 4a7f 923e f902 b8be 32bc a9be c3c7 febd
00000190: 3118 733e 4108 b53e 234a b3be 5157 0b3e
000001a0: 5601 993e b42c 34be 7df5 b53a 390d f13d
000001b0: 2302 f9bd ae38 83bc 35bf b6bd 0866 a8be
000001c0: ed53 9fbe 96e6 f13e 99a4 873e 0796 623b
000001d0: fe50 50be c6eb 143e c45c e93c 1636 b8ba
-0.30085838 0.28903675 -0.046470847 0.03961588 0.19320019 0.113334335 -0.09521485 0.7447261
0.1639334 0.16092587 -0.2631044 0.2533596 0.29742932 -0.099358365 0.09060444 0.49134076
0.3947559 0.090632305 0.05801011 -0.03642962 -0.37142673 0.065868884 0.19125542 -0.18809053
-0.24358366 -0.117899686 -0.29377967 0.06199181 -0.21523646 0.18363462 0.11147913 0.21005876
0.08889659 -0.012435386 0.30472332 0.07097315 -0.2670395 -0.21404463 0.30726686 0.0939814
0.108183004 0.26139328 0.13144624 -0.17572904 0.10630088 -0.4888435 0.19772574 -0.12841964
0.007860272 0.098874085 -0.13273825 -0.28499645 -0.01813259 0.36720097 -0.2510382 -0.027961954
-0.29085097 -0.17229877 0.13472745 -0.4649921 0.30994472 -0.19527361 0.48801693 0.24473143
-0.163006 0.16571726 0.3240446 -0.19877245 -0.1229159 -0.20456868 0.09030483 0.3291386
-0.25104225 0.068386585 0.2655095 -0.30216554 0.03532274 -0.08802377 0.20122106 -0.39828837
0.075710885 -0.16920248 -0.13942772 0.10159465 0.30702502 -0.15470235 -0.13678074 -0.4744859
0.11805321 0.16112256 -0.06182506 -0.387267 -0.05407185 -0.21396357 -0.44987226 -0.1334243
0.2861274 -0.35939768 -0.33151394 -0.12440445 0.23739697 0.3535786 -0.350175 0.13607527
0.29883832 -0.17595178 0.0013882365 0.117701 -0.12158611 -0.016018238 -0.089231886 -0.32890344
-0.31118718 0.47246236 0.26492766 0.0034574287 -0.20343396 0.14543065 0.028486617 -0.0014054205

fc2.weight f4 [84, 120]
00000000: 7131 c43b 1235 d3bd 2624 a23d 0ba1 19bf
00000010: 179c f9bc a708 79be 9a15 ac3c 22b9 2dbd
00000020: 733f 14bc 8ca0 d1be e27b 96bd 4049 fbbe
00000030: 19dc 38bd 1f08 3dbe e612 00be c2a6 abbd
00000040: 930d 70be dbff d0bd 2827 8abe 7d34 8dbe
00000050: a4f8 afbe 60d2 72be 390f 2b3d 8cf8 5f3e
00000060: 0814 1cbe d89b c5be 7fa4 833d 1387 abbe
00000070: 6b5e 953d 4ae9 b63d f4d7 5fbe 0d86 a0bd
00000080: 50ef 57be 7204 d1be d3cc f1be 1c2a 45be
00000090: d645 06be 9578 803d 885b 433e 5e5d 94bc
000000a0: a5f1 e73d fa71 06bf b097 623d 0db3 87be
000000b0: 94b4 2bbe 7e28 b4be ee4e 5bbe 2633 aebe
000000c0: 6274 37bf 95e8 cd3a a812 8ebe 583a dabe
000000d0: 3356 87bc fb37 053e 28d7 653e d892 37be
000000e0: 524f 9a3c c039 71bd 3d25 773e 9178 d9bb
000000f0: 48a2 18be 131d 8bbb 1b48 a03c f0dd fc3c
00000100: 73e6 c0be c968 7e3e e01e 573c bd74 7abe
00000110: 12ad 08be d7a5 75be de19 3f3e 24dd e0bd
00000120: 230d b4bd dd7f c6be 6bf1 aa3d b353 c33d
00000130: 6556 b4be 82a2 30be ba07 8cbe 1155 6ebc
00000140: f354 1fbe d715 7cbd 93dd 343e ebad 92bd
00000150: 7e8b a9be 7af4 3c3d 4722 f43d dce9 b53d
00000160: e3b3 9abe fdde 1cbd 84b0 653e 0c82 e03c
00000170: 40ad 5ebe 1818 a5be 5ae1 673e 0e9a 80bd
00000180: 312d 1d3e 9bda 413e 47d5 31be 0535 09bf
00000190: 9fcf 02be e3d4 b03d 0eaf acbe 1854 6dbe
000001a0: 9fab bbbd 0349 70bd bd20 78be e712 5ebe
000001b0: 719a f3be cdce 1ebe a507 cabd 2704 093e
000001c0: 4c33 7ebe 4bae b2be e796 21be e8af bdbd
000001d0: 1e69 c5be 1f37 89be ef69 0e3e 4f61 96be
000001e0: 5343 7b3d 1157 4cbe 86bd dd3d f71b 16bd
000001f0: 757a d5bd 4ebe 85be 5551 89bc cd52 473e
00000200: c222 5abe 1dac 74be 828c 4dbe 9386 103e
00000210: 548d 39be 9683 95be ffb8 eebe 34e7 ecbd
00000220: 2c2c 5a3d 933b 0abf fcf7 613e 1508 01bf
00000230: 5a3e 40be 1221 37be b160 fc3d e604 acbb
00000240: 7498 803b 9996 ecbd 8545 89be 0cc0 91be
00000250: 8c6a dfbe e354 7ebe 37c0 083e 68d5 7dbe
00000260: aebe ba3d 6ddc a0bd 4ee7 84bd 869a 6cbe
00000270: 683b b2bd 74f2 8b3d 38bd 073d c8c7 473e
00000280: 625a f7be af21 2ebe dae1 013e 7fea 573e
00000290: 2e1f 1abe 3207 953b 416f 34bd 8fae 4ebe
000002a0: fdb2 92be e599 0c3d e04f cfbe 6f6d a5bd
000002b0: e44e 8d3c 7105 a4be 4ad8 2abe a7db 34be
000002c0: 2e31 50be 72f5 d7be 2b85 84be 17d1 9c3c
000002d0: 7014 d33d 20f5 0cbf 726d 03be 91f0 29be
000002e0: 7b3a 513e bdd4 4abe 5550 b73e 8a5b 50bc
000002f0: 23a3 0f3c 72e9 57be 9df2 42be 34e5 88be
00000300: 1f85 4d3d cd68 8ebe b8a4 8b3e 4d68 69bd
00000310: dfad e0be 3a1c b2be 8dc3 b83d 948c 4bbe
00000320: 78af a3be d3ce 8cbe e23e 9d3c 2f2d 75be
00000330: 6611 96bd 64d8 b1be 6d58 7ebe 2f7f 02bf
00000340: f560 353e f19e c13c 7583 d9be dfa9 b4be
00000350: e4f7 073e f9cb 5cbd 9c77 12bf ec04 4f3b
00000360: bd78 403d b632 5fbe 20ab 16be 3ddd 69be
00000370: 269a 82be 7389 7e3d 7e5c ecbd c948 6ebe
00000380: 6190 983c d64b 38be 8400 41be ec61 153d
00000390: 3d1d 80bd 5f5e 3d3c c5ed 013d 0650 27be
000003a0: a519 b7be 5f82 17be a940 c13d 4a0d 83be
000003b0: 6c29 33be 2813 85bd bce8 ec3d 24da 663e
000003c0: 4142 eebd 0c1e 63bd 49ce ed3d 7156 a8be
000003d0: c8a4 75be eb45 7ebe b202 a33d daf6 9f3d
000003e0: 7052 85be d4e7 85be 5101 2abe bf08 f4be
000003f0: 0151 8b3d 0280 92be faaa 09bf c644 63be
0.005987339 -0.10312857 0.07917051 -0.6001136 -0.030469937 -0.24319707 0.021006394 -0.042412885
-0.009048331 -0.409428 -0.073478475 -0.49079323 -0.045131776 -0.18460129 -0.12507209 -0.08381416
-0.23442678 -0.102050506 -0.26983 -0.27579108 -0.34369385 -0.23713064 0.041762564 0.21872157
-0.15242016 -0.38595462 0.064278595 -0.3350149 0.072933994 0.08931215 -0.21859723 -0.07838068
-0.21087384 -0.40823704 -0.4722658 -0.19254345 -0.13112578 0.06272999 0.19077885 -0.018110927
0.11325387 -0.52517664 0.05532044 -0.26503792 -0.16768104 -0.35187143 -0.21416828 -0.34023398
-0.7166196 0.0015709574 -0.2774861 -0.42622638 -0.016520595 0.13009636 0.22445357 -0.1792711
0.018836651 -0.058892965 0.24135299 -0.006636687 -0.14905655 -0.0042454093 0.019565633 0.030867547
-0.3767582 0.2484466 0.01312992 -0.24458595 -0.13347271 -0.23989044 0.18662211 -0.10979679
-0.08791568 -0.38769427 0.08346828 0.09537449 -0.35222164 -0.17249492 -0.27349645 -0.014546649
-0.1555975 -0.061544266 0.17662649 -0.071620785 -0.33114237 0.04613159 0.119206004 0.08882496
-0.30215368 -0.038298596 0.22430617 0.027405761 -0.21745777 -0.32244945 0.22644559 -0.062793836
0.1534927 0.18931048 -0.17366515 -0.53596526 -0.12774514 0.08634355 -0.33727306 -0.2317661
-0.091635935 -0.05866338 -0.24231239 -0.21686898 -0.47578767 -0.15508576 -0.09864739 0.1338049
-0.24824256 -0.348986 -0.15780221 -0.09262067 -0.3855676 -0.26799867 0.13907598 -0.29371116
0.061343502 -0.19955088 0.10827164 -0.036647763 -0.104237475 -0.26121753 -0.016762415 0.1946518
-0.21302322 -0.23893781 -0.2007313 0.14113836 -0.18120319 -0.29201955 -0.46625516 -0.11567536
0.05326478 -0.53997153 0.22067255 -0.5040296 -0.18773785 -0.17883709 0.1232313 -0.0052496074
0.003924424 -0.11552162 -0.26810852 -0.28466833 -0.43635976 -0.24837069 0.13354574 -0.2478844
0.091184005 -0.07854543 -0.0648943 -0.23105821 -0.08702737 0.06833354 0.033139437 0.19509804
-0.48311144 -0.17005037 0.12683812 0.21085547 -0.15050957 0.004547977 -0.044051412 -0.20183776
-0.28652182 0.034326453 -0.40490627 -0.080775134 0.017249532 -0.320354 -0.1668407 -0.17661916
-0.2033126 -0.42179447 -0.2588285 0.01914267 0.103066325 -0.5506153 -0.12834719 -0.16595675
0.20432465 -0.19807716 0.35803476 -0.012717137 0.008766922 -0.21085146 -0.19037862 -0.26737368
0.050175782 -0.27814332 0.27274108 -0.056984235 -0.43882653 -0.3478716 0.09021673 -0.19877845
-0.3196981 -0.27501544 0.019195024 -0.23943017 -0.07327537 -0.34735405 -0.2483842 -0.50975317
0.17712767 0.02363536 -0.42483106 -0.3528585 0.13278157 -0.05390546 -0.5721376 0.0031588627
0.046990145 -0.21796688 -0.14713717 -0.22838302 -0.2550823 0.0621428 -0.11541079 -0.23269953
0.018623533 -0.17997679 -0.18847853 0.03647034 -0.06255577 0.011558144 0.031720895 -0.1633912
-0.35761753 -0.14795826 0.09436161 -0.25596076 -0.1749627 -0.064977944 0.11567828 0.22544152
-0.11633731 -0.055448577 0.116116114 -0.3287845 -0.2398864 -0.24831359 0.079594985 0.07810755
-0.26039457 -0.26153433 -0.16602065 -0.47662923 0.0680256 -0.28613287 -0.53776515 -0.22194204

fc2.bias f4 [84]
00000000: 1988 a7be 0828 473f a0de 343e 34e8 85be
00000010: b111 d5be 2587 b5bd f7d1 ab3e 5266 143f
00000020: 81ff e2be 2cfd 2b3f 73c9 87bd f6da 273e
00000030: 41ab 6a3e 5288 eebe 3669 4dbe fed7 573e
00000040: ae42 cbbd 9f67 1c3e 79cf a73f 1a83 87bd
00000050: 6a77 1cbf 7b76 4ebf 3ecb 81be 0f53 41be
00000060: bc0d b73e 171f 503e 7c22 26be b2f7 c5bd
00000070: 314d 923e f567 473e c411 71be be6c ad3f
00000080: 91fb 623e 3267 a0be 71a4 8d3e f41c 213d
00000090: 2651 5dbe ecab 3a3f 398e 403e e608 c2bd
000000a0: 396e 2a3e bd9e 153f 3ae0 3f3e 2ad5 46be
000000b0: 0083 833f 578e 18bf 7fa6 83be ec0c e7bd
000000c0: 9868 003f 72cc 2f3e b9a2 453f a245 80be
000000d0: 1529 983e 4f4a d7be 785f cebc f5e5 3e3f
000000e0: 8857 05be ab6c 8dbb fb9d d8be 19b2 fc3f
000000f0: 1245 213e fa83 653f baa4 73be c766 35be
00000100: 981c 21bf 3603 39be 54ca 263f da5f 2c3e
00000110: ef3a 553b 0db6 e43e f748 09be 8631 9d3d
00000120: da11 723f eae3 84be 11ca f23e 2108 113e
00000130: de50 363e d187 873f c9b6 f93e 9c5f 373e
00000140: 3c3a a23e 8009 3b3e 4d25 3b3f 814c 2d3f
-0.32721022 0.7779546 0.1766305 -0.2615372 -0.4161506 -0.088636674 0.33558628 0.5796863
-0.4433556 0.67183185 -0.0663022 0.1639212 0.2291689 -0.4658838 -0.20059666 0.21078488
-0.099248275 0.15273903 1.3110191 -0.066168025 -0.6111971 -0.80649537 -0.25350374 -0.1887934
0.35752666 0.2032436 -0.16224092 -0.09666385 0.28574517 0.1947325 -0.23541933 1.354881
0.22166277 -0.31328732 0.2766452 0.039334252 -0.21612987 0.7291858 0.18804254 -0.094743535
0.16643609 0.5844534 0.1873788 -0.19417253 1.0274353 -0.59592193 -0.25712964 -0.112817615
0.501596 0.17167833 0.7720142 -0.25053126 0.29718843 -0.4204888 -0.025192007 0.74569637
-0.13021672 -0.0043159327 -0.4230803 1.9741851 0.15749004 0.89654505 -0.23793307 -0.17714988
-0.62934256 -0.18067631 0.6515248 0.1683344 0.0032536348 0.44670144 -0.1340674 0.076754615
0.9455849 -0.25955135 0.4741979 0.14163257 0.17804286 1.0588323 0.48772267 0.17907566
0.31685054 0.18265343 0.7310379 0.6769486

fc3.weight f4 [10, 84]
00000000: 0e31 863e 03ff 0bbd eb44 f23c ade4 a1bc
00000010: 6ec3 2e3e b9bb d2bc 5f20 47bd f893 0fbe
00000020: b909 c13d d0ab 813d 19b2 603d 0934 c2bc
00000030: 1fb8 7dbe 347f 1b3e 1aab 783d 98f5 323e
00000040: 6af2 fe3d 716b af3d 4225 41be d720 e0bd
00000050: d264 133e ef92 763e 87a4 81be 8bf8 ce3c
00000060: a32e 9cbd f299 4a3e 0725 98bd ae3f 023e
00000070: 72d6 29be 4d55 553d c99e 7ebd f239 be3d
00000080: a264 80bb 1d29 3f3d 9765 883d 4da8 d93c
00000090: 895f 023e 39ab 373d 85d5 37bd afee 9cbd
000000a0: 6819 8f3b 4f00 53be 1b8e 00be af75 a53d
000000b0: c05c a33e 92b5 94bc 642f 42bd 0775 05be
000000c0: f22c 523d bee9 893d 2497 e83d bdc7 9b3d
000000d0: 929b 5ebe b23d 5cbc 64f3 1b3e bc31 223d
000000e0: 7ae2 dbbd eddd c03d bba8 4bbd 1f45 823b
000000f0: d052 e33c d21e a8be 14a3 2a3d c500 27bd
00000100: a0ec 07bc c6c7 88bc 3f8b 393e d861 833d
00000110: a761 21be f52b 60be 0bcc c0bd 9eaf 313d
00000120: 0715 b8bc 7b00 503d 3230 89bb aa8f 5b3d
00000130: 1636 80bd 7059 a03b d739 d2ba 06b2 dc3a
00000140: e192 bb3d bcad 50bd 9057 a7bc d9a9 6a3e
00000150: daeb c5bc ff29 fcbd ba30 e13d 59fa d1bc
00000160: 2d35 9b3c b06f 353e 2fe5 72be 012f 3bbd
00000170: 9d31 aa3e 2827 a7be 8180 523e 4045 35bd
00000180: 0859 61bd 3fb5 c9bd f4b0 09bc 244b a33e
00000190: 218a 5f3d ffcd e43d 060a 22be b615 94bd
000001a0: 9396 d93a e816 3bbc db6c 003e fa89 d5bd
000001b0: c70b 403b 6bb0 4ebd c218 8abe 8a9e 673d
000001c0: 40d3 d53d 0e23 18be f2ae cd3c 6d43 a7be
000001d0: 4d28 4ebd 40cc 1fbe 93c3 7bbd 2297 76bd
000001e0: 55cf 083e 4233 793d 5eea e3bd 904d 38bb
000001f0: 1208 02bd 7641 2bbe 516c b5bd 948e dabd
00000200: 87a9 c33c 60aa cbbd 0750 3a3a 8b0f 87be
00000210: d645 273c f2cf 06be 28d6 903d c155 3f3d
00000220: cba1 6cbc 50a7 ea3d 9db7 a6bd f19d 763e
00000230: b41d 873e bbf1 b8bc d6eb bc3c dfef 19be
00000240: 3b24 a0bc 358e 9cbd 1fc0 4dbc 2a60 6c3e
00000250: 2124 313e 09fd 93bd ccc8 f6bc 5e13 37be
00000260: 3fb8 f83d edac 02be be5f 2ebe 1f85 08bd
00000270: 91a1 83be 0576 823e 0dbe 7b3c 3923 31bd
00000280: b6c2 a3bd 3635 18be 8dc1 71be dcd4 6cbd
00000290: 2877 f43c f60e f0bd 8927 e2bc 8c0e 15be
000002a0: 924e d53d 9e32 2dbc fe1f 6e3d 49b0 8d3d
000002b0: 3a68 c2bc 016c afbd 4c5d cabc 631a c13d
000002c0: db88 433c 98cd afbc a506 793b 74d8 8fbd
000002d0: 6b97 c83b e12c 3a3e f86e 0dbe 10d0 75bc
000002e0: ab0f 68bc 9687 20be 869d 453b cb2b 253e
000002f0: ae7f ea3d 4662 413e 320e 3e3d aabc 253e
00000300: 4f67 25bc 7ca4 8dbd 7017 303c 4cd0 94bc
00000310: fdbc 523e 68f1 85bd e229 a6bd 9207 243e
00000320: d994 fe3c 9bfb d13e 9c8e 283e f163 c7bd
00000330: 6b1e a0bc b1ef bcbd 0f7c b5bd 99d2 08bd
00000340: fc53 4a3e 32c3 a33c a6b6 58bd b3ad 4f3e
00000350: 4c3e 1b3e e004 813e dfd8 c7bb 5c09 2b3e
00000360: 08cb 923d 839b e2bd bb11 d2bd 2dda d73d
00000370: bfb4 153d 44f4 113e 450d a6bd 1e1a a43c
00000380: c057 29ba 2980 163e 2c91 1c3d ddfa 193d
00000390: 03ab 10be caf5 82bd eaea 17bd 1b97 6abd
000003a0: 175c 88bd 54f2 bcbd d8f5 02bd 7d38 9dbc
000003b0: e032 893d 757a 85bd 3386 14be 96ac 783b
000003c0: a099 963d b656 02be a559 10be 9a97 553e
000003d0: ee17 20bd ac61 463e 8a3b 153c b0fc c13d
000003e0: 1df0 71bd 204d 983d f4b5 4b3e 917e 123e
000003f0: 3369 73bd 6b92 403d c963 a3bd a7f4 1d3d
0.262093 -0.034178745 0.029573878 -0.019762361 0.17066738 -0.025724279 -0.048614856 -0.1402129
0.094256826 0.06331599 0.054857347 -0.023706453 -0.24777268 0.15185243 0.06071005 0.17476499
0.124485806 0.08565415 -0.18861869 -0.10943764 0.14393929 0.24079488 -0.25320837 0.025264999
-0.07626083 0.19785288 -0.074289374 0.12719604 -0.1658571 0.052083302 -0.062163148 0.09288396
-0.0039182464 0.046670068 0.06660002 0.02656951 0.12731756 0.044841025 -0.044881362 -0.07662713
0.0043670423 -0.20605586 -0.12554209 0.08079087 0.319067 -0.018152986 -0.047408476 -0.13032924
0.051312394 0.06734036 0.11356953 0.076064564 -0.21739033 -0.013442444 0.15229565 0.03959821
-0.10736556 0.09417329 -0.04972146 0.003975525 0.027749449 -0.32836014 0.04165943 -0.04077222
-0.008296162 -0.016696822 0.18119524 0.064151466 -0.15759908 -0.21891768 -0.09413918 0.043380372
-0.022470964 0.05078171 -0.0041866535 0.053603806 -0.06260316 0.0048934743 -0.0016038966 0.0016837723
0.09158874 -0.050946936 -0.020427495 0.22916354 -0.024160314 -0.123126976 0.10995622 -0.02563207
0.018946255 0.17718387 -0.23720239 -0.045699123 0.33240977 -0.3264706 0.20556833 -0.044255495
-0.055016547 -0.09849023 -0.008404005 0.31893265 0.05457509 0.11172103 -0.15824136 -0.072307035
0.0016600661 -0.0114190355 0.12541525 -0.104267076 0.0029303895 -0.050461214 -0.26972014 0.05654768
0.10440683 -0.14857122 0.025107834 -0.3266863 -0.050331403 -0.15605259 -0.06146581 -0.060202725
0.13360341 0.0608399 -0.11128686 -0.0028122403 -0.031745978 -0.1672419 -0.0885855 -0.10671726
0.023884548 -0.09944606 0.0007107262 -0.26379046 0.010209521 -0.13165262 0.07072097 0.04671264
-0.014442871 0.114576936 -0.0814049 0.24083687 0.2638985 -0.022576204 0.023061674 -0.1503291
-0.019548526 -0.07644311 -0.012558012 0.23083559 0.17298938 -0.07225997 -0.030125044 -0.17878482
0.12144517 -0.12761278 -0.1702871 -0.03333008 -0.25709203 0.25480667 0.015365136 -0.04324648
-0.079961225 -0.14864048 -0.2360899 -0.057820186 0.029841974 -0.117216036 -0.027606742 -0.1455633
0.10415377 -0.01057115 0.05813598 0.06918389 -0.02373134 -0.08565522 -0.02470269 0.09428861
0.011934484 -0.02146034 0.0037998345 -0.07023707 0.006121566 0.18181182 -0.13811862 -0.015003219
-0.014163892 -0.15676722 0.0030153706 0.16129987 0.11450134 0.18885145 0.046400256 0.16185251
-0.0100954315 -0.069161385 0.010747775 -0.01816573 0.20579906 -0.06540185 -0.08113457 0.16018513
0.031076835 0.41012272 0.16460651 -0.09735859 -0.019545754 -0.09225405 -0.08861553 -0.033403967
0.197586 0.019990537 -0.052908562 0.20281105 0.15160483 0.25199032 -0.006098851 0.16702789
0.071676314 -0.11064818 -0.10257288 0.105396606 0.036549326 0.14253336 -0.08108 0.020031985
-0.0006459914 0.14697327 0.038224384 0.037592757 -0.14127736 -0.06394537 -0.037089266 -0.05727301
-0.0665819 -0.09225908 -0.031972736 -0.019191975 0.06699157 -0.065174975 -0.14504318 0.0037944666
0.073535204 -0.1272839 -0.14096697 0.20858613 -0.03908532 0.19373196 0.0091084335 0.094720244
-0.05906688 0.074365854 0.19893628 0.14306094 -0.059426498 0.047014635 -0.07978017 0.038563397

fc3.bias f4 [10]
00000000: 81f7 013e 33b6 1fbf 401b a53d cebf 5d3f
00000010: 3af6 143e a077 063f 06e7 d6be 2187 dbbe
00000020: 9f7e b0bc 4319 3b3d
0.12692071 -0.6238739 0.08061838 0.86620796 0.14547053 0.52526283 -0.41973132 -0.42876533
-0.021544753 0.04567839
