Pytorch/model_backup/cifar_net_tensorboard_original.pth (torch_old, 249664 bytes, 10 tensors)

conv1.weight f4 [6, 3, 5, 5]
0	0xbf654990	-0.8956537
1	0xbf889cf4	-1.0672898
2	0xbf77cf5e	-0.9680079
3	0xbf8b099f	-1.0862311
4	0xbf910df1	-1.133238
5	0xbde97e3c	-0.114010304
6	0x3ea36c70	0.3191867
7	0x3f2d6c97	0.6774382
8	0x3f345a3b	0.7045018
9	0xbf031920	-0.5121021
10	0x3f43ac90	0.76435184
11	0x3fc3e40f	1.5303973
12	0x3fded418	1.7408476
13	0x3fd90976	1.6956012
14	0x3d6c860f	0.057745036
15	0x3e9472e7	0.28993914
16	0x3fbe4cde	1.4867208
17	0x4002546b	2.0364025
18	0x4009a4ca	2.150683
19	0x3eaf7539	0.3426912
20	0xbfb3390a	-1.4001782
21	0xbd9de91f	-0.0771048
22	0x3f55ab34	0.8346436
23	0x3d837393	0.064185284
24	0xbf94b71c	-1.161838
25	0x3f71fba6	0.9452461
26	0x3f559e3f	0.8344459
27	0x3f301217	0.687776
28	0x3e3a0929	0.18167557
29	0x3e236172	0.15955141
30	0x3e6ba41c	0.23011822
31	0x3e809bef	0.25118968
32	0x3e6b7bd1	0.22996451
33	0x3e8e64cb	0.27811274
34	0xbf056188	-0.52101946
35	0xbf26058c	-0.64852214
36	0xbf0ade3d	-0.5424536
37	0xbf51487f	-0.81751245
38	0xbf36b7e5	-0.7137435
39	0xbf952e55	-1.1654764
40	0xbf48643b	-0.7827794
41	0xbf6a70dd	-0.91578466
42	0xbf92ded6	-1.1474254
43	0xbe801657	-0.25017044
44	0xbedeb1cb	-0.4349502
45	0x3e951c2b	0.29123053
46	0x3e52307a	0.20526305
47	0xbe997c18	-0.2997749
48	0xbf370126	-0.7148613
49	0xbe50be58	-0.2038511
50	0x3e13a032	0.14416578
51	0x3f4f892c	0.8106868
52	0x3f59ac3a	0.8502842
53	0xbe688f11	-0.22710826
54	0x3f3bf5dc	0.73422027
55	0xbde3f68e	-0.11131011
56	0x3de4577c	0.11149499
57	0x3f05eb55	0.52312213
58	0xbe247938	-0.16061866
59	0x3ebb6789	0.3660243
60	0xbf0db933	-0.55360717
61	0xbf03a496	-0.51423013
62	0xbf0d6f32	-0.55247796
63	0xbf332ff1	-0.6999503
64	0xbd8e688d	-0.06953535
65	0xbf3b5224	-0.7317221
66	0xbf5a8b58	-0.8536887
67	0xbf8d36df	-1.103237
68	0xbf08faf2	-0.5350791
69	0x3f0db0e7	0.55348057
70	0x3f2349e6	0.63784635
71	0xbcfeef0f	-0.031119851
72	0xbe12d6b2	-0.14339712
73	0xbd8c3945	-0.06846861
74	0x3fbaab4b	1.4583524
75	0xbdb87148	-0.09005982
76	0x3f2c12d2	0.6721622
77	0xbdfa5344	-0.12222913
78	0xbf4379d6	-0.7635778
79	0xbd1083bb	-0.035281878
80	0x3e7ba948	0.24576294
81	0xbedc1d8a	-0.42991287
82	0xbe615cbf	-0.22008036
83	0x3ea63ace	0.3246674
84	0xbe144489	-0.14479269
85	0x3fa7948e	1.309221
86	0xbfa32837	-1.2746648
87	0xbfa63fb1	-1.2988187
88	0x3fe9e2b5	1.827231
89	0xbe3003eb	-0.17188995
90	0x3f346323	0.7046377
91	0xbfeffadd	-1.8748432
92	0xbf49f7c1	-0.7889367
93	0x401b2d2c	2.424632
94	0xbda0596f	-0.07829558
95	0xbedd54c6	-0.4322874
96	0xbeb804f6	-0.35941285
97	0xbea2ed7c	-0.3182181
98	0x3eaa3f6c	0.33251512
99	0x3e5b9b51	0.21445967
100	0xbe185030	-0.14874339
101	0xbe90e30b	-0.2829822
102	0xbe80e069	-0.2517121
103	0xbe88a18c	-0.2668575
104	0x3f8105e1	1.0079919
105	0x3e4ef1bb	0.202094
106	0xbfc051ed	-1.5025002
107	0xbefee443	-0.49783525
108	0x3f5931a9	0.848414
109	0x3f46d2e8	0.7766557
110	0x3fa4d810	1.2878437
111	0xc01e596d	-2.474208
112	0xbfc2ac57	-1.5208844
113	0x3ff5e06e	1.9209116
114	0x3ee4689e	0.44611067
115	0x3fcf0924	1.6174664
116	0xc00207e7	-2.0317323
117	0xbfc07f04	-1.5038762
118	0x3fe1eff4	1.7651353
119	0x3e36349e	0.1779351
120	0x3f36fd4a	0.7148024
121	0xbf5e021c	-0.8672197
122	0xbf6b388d	-0.91883165
123	0x3d8d3d1e	0.06896423
124	0xbd919f3d	-0.071104504
125	0xbe957c3a	-0.2919634
126	0x3ebe3a8c	0.37154043
127	0x3d8f60d2	0.07000889
128	0xbe96d058	-0.2945583
129	0xbe5be610	-0.2147448
130	0xbcc6d6be	-0.024272319
131	0xbf1f6ff2	-0.6228019
132	0x3f3c8c8e	0.7365197
133	0x3f46c8aa	0.7764994
134	0xbf2d95ac	-0.67806506
135	0x3fabc8a3	1.3420604
136	0xbfaafa4a	-1.3357632
137	0xbf01cc4a	-0.50702345
138	0x3fc2326f	1.5171641
139	0xbf693f88	-0.91112566
140	0x3fded38f	1.7408313
141	0xbfcc9933	-1.5984253
142	0xbfccbc7c	-1.5995021
143	0x3fd37fa3	1.6523327
144	0xbef74dfb	-0.48301682
145	0x3f296add	0.66178685
146	0x3eb94343	0.3618413
147	0xbee05f7e	-0.43822855
148	0x3f297a12	0.6620189
149	0x3e11cdc0	0.14238644
150	0x3f8b22b9	1.0869972
151	0xbe2df110	-0.1698649
152	0xbe077845	-0.13229473
153	0x3f164eb3	0.58713835
154	0x3f0a8334	0.5410645
155	0x3d45722b	0.048204582
156	0xbe4c2739	-0.19936837
157	0xbf05bc08	-0.5224004
158	0xbf6c0c65	-0.9220641
159	0xbe11e258	-0.142465
160	0x3f25d9aa	0.64785254
161	0xbf20c426	-0.627993
162	0xbf4edc35	-0.8080476
163	0xbf0eab11	-0.55729777
164	0xbef2f00a	-0.4744876
165	0xbed6cda4	-0.41953766
166	0xbf48132a	-0.7815424
167	0xbf6c1829	-0.92224365
168	0xbfb561a4	-1.4170423
169	0xbe4a20c1	-0.19739057
170	0x3ceb0f51	0.028693827
171	0xbf976e64	-1.1830564
172	0xbf979b54	-1.1844277
173	0xbec7cbf2	-0.39022785
174	0x3e143fe7	0.14477502
175	0x3f394879	0.7237621
176	0xbd41e8e5	-0.047341246
177	0xbe08ea2a	-0.13370577
178	0x3f423200	0.75857544
179	0x3eba981b	0.36444172
180	0xbe9bfed1	-0.30467847
181	0xbcbcbbab	-0.023038706
182	0xbda30d29	-0.079614945
183	0x3e28b671	0.16475846
184	0xbd61db22	-0.055140622
185	0x3ee478b5	0.44623342
186	0x3eb5acfa	0.35483533
187	0x3efa3e5f	0.4887571
188	0x3f65c08b	0.8974692
189	0x3df23e4e	0.1182829
190	0xbd68e75a	-0.05686126
191	0x3f074ea2	0.5285436
192	0x3dca0527	0.09864264
193	0xbe19cb2f	-0.15018915
194	0x3d68c4d4	0.056828335
195	0x3e1a3ae8	0.15061533
196	0xbf184826	-0.5948509
197	0xbf3f2ef6	-0.7468103
198	0x3c2add6f	0.01042877
199	0xbeb69a68	-0.35664678
200	0xbe7743c0	-0.24146938
201	0xbe510342	-0.20411399
202	0xbf2b3f0f	-0.66893095
203	0xbeccb909	-0.3998492
204	0xbf87f537	-1.0621709
205	0xbf5babc3	-0.8580896
206	0x3ed1de38	0.40989852
207	0x3f0183f7	0.5059199
208	0x3ed42c5f	0.41440102
209	0xbdd6c11d	-0.10486052
210	0x3c80fecc	0.015746497
211	0x3f64540c	0.89190745
212	0x3fb3836f	1.4024485
213	0x400095d7	2.0091455
214	0x3f750587	0.9571156
215	0xbea0dead	-0.31419888
216	0x3f66b362	0.90117466
217	0x3f80c22e	1.0059259
218	0x3f6e15a9	0.930018
219	0x3d824b23	0.063619874
220	0x3e0940ee	0.13403675
221	0x3eadefea	0.33972102
222	0x3f419447	0.7561688
223	0x3f8e1bae	1.1102197
224	0xbd060187	-0.0327163
225	0xbf5c43a0	-0.8604069
226	0xbf267667	-0.6502442
227	0x3f0537a0	0.52038
228	0xbde2b09d	-0.110688426
229	0xbe88cc74	-0.26718485
230	0xbf59e44b	-0.8511397
231	0xbde4b6be	-0.11167668
232	0xbebeb2ae	-0.37245697
233	0xbfb63aee	-1.4236734
234	0xbd93fd06	-0.07225995
235	0x3f26268a	0.64902556
236	0xbeeda674	-0.46416056
237	0xbfb8258e	-1.4386461
238	0x3ed695cd	0.41911164
239	0x3ffc7982	1.9724581
240	0x3e5576da	0.2084612
241	0x3dbd5e94	0.09246555
242	0x3f14bbf4	0.58099294
243	0x3fc6b958	1.5525312
244	0xbdc06ddb	-0.09395953
245	0x3eaa27d3	0.33233508
246	0xbe949a56	-0.29024
247	0x3f30b1e2	0.6902143
248	0x3f142548	0.57869387
249	0xbf8f1889	-1.1179363
250	0x3f30774a	0.6893202
251	0xbd229d02	-0.039700516
252	0x3e0ab4a8	0.13545477
253	0xbf580551	-0.8438311
254	0xbefcd840	-0.49383736
255	0x3f3a57c5	0.72790176

conv1.bias f4 [6]
0	0xbfe7aad7	-1.8099011
1	0xbf93d949	-1.1550685
2	0x3dc747af	0.097304694
3	0xbe27c325	-0.16383035
4	0x3dc2ba5f	0.09508204
5	0xbfb25444	-1.3931966

conv2.weight f4 [16, 6, 5, 5]
0	0x3d6b4d86	0.05744698
1	0xbd9c521e	-0.0763285
2	0x3e86b53b	0.26310143
3	0x3edeff0c	0.4355396
4	0x3ebef390	0.37295198
5	0x3d85190a	0.064989164
6	0xbf75c25c	-0.95999694
7	0xbe8e6010	-0.27807665
8	0xbe434d27	-0.190724
9	0x3e8824db	0.26590618
10	0x3f1e14cb	0.6175048
11	0xbf0402f5	-0.5156701
12	0xbed8f99a	-0.4237793
13	0xbe26992d	-0.1626937
14	0x3ec9a847	0.39386198
15	0x3e1ff815	0.1562198
16	0x3d494c39	0.049144957
17	0xbd4eb614	-0.050466612
18	0xbe19cb8b	-0.15019052
19	0x3f2487f2	0.64269936
20	0x3d7914c8	0.060810834
21	0xbcfbc7b4	-0.030734874
22	0xbf13c131	-0.5771666
23	0xbe921768	-0.28533483
24	0x3eecb2af	0.46230075
25	0xbf60b5af	-0.8777723
26	0xba575511	-0.0008214275
27	0xbe84b818	-0.25921702
28	0x3b99f942	0.0046989033
29	0x3ca409cd	0.020024205
30	0xbea878ca	-0.32904655
31	0xbf8450aa	-1.0337117
32	0xbf1f26ed	-0.6216877
33	0x3a9119db	0.0011070328
34	0xbe901045	-0.28137413
35	0xbd881d33	-0.06646194
36	0x3d155074	0.03645368
37	0xbf2fbbdf	-0.68646044
38	0xbe166233	-0.14685898
39	0xbe13f496	-0.14448771
40	0x3f614ac4	0.8800471
41	0x3cec417c	0.02883982
42	0xbebe4460	-0.3716154
43	0xbe23d9b9	-0.16001023
44	0xbd03da70	-0.03219074
45	0xbe2fa251	-0.17151763
46	0x3f349205	0.7053531
47	0xbe300c90	-0.17192292
48	0xbe675de8	-0.22594416
49	0xbeefa59c	-0.46806037
50	0x3faab68b	1.3336958
51	0xbe8192c6	-0.25307292
52	0xbe8cc8e6	-0.27497023
53	0xbe7ed618	-0.24886358
54	0x3e79755a	0.24361172
55	0x3e49adde	0.19695231
56	0xbd0f051e	-0.03491699
57	0x3eca98b7	0.39569637
58	0xbe84c6f7	-0.25933048
59	0xbf01c1bd	-0.50686246
60	0xbe60dede	-0.21960017
61	0x3ed4e440	0.4158039
62	0x3e7e6c04	0.24845892
63	0x3d214ed7	0.03938183
64	0xbf21af88	-0.63158464
65	0x3f502484	0.8130572
66	0x3ee35dac	0.44407403
67	0xbeed94f5	-0.46402708
68	0xbd12f7b0	-0.035880744
69	0xbec342c7	-0.38136885
70	0x3ed9a752	0.42510468
71	0xbe25ef02	-0.16204455
72	0xbebf8407	-0.37405416
73	0xbe1b9db1	-0.15196873
74	0xbe9856da	-0.29753762
75	0xbe535a1b	-0.20639841
76	0x3e48fac9	0.19626917
77	0x3e3db091	0.18524386
78	0xbd959280	-0.07303333
79	0x3ed0a6c9	0.40752247
80	0x3e220d9a	0.15825501
81	0x3eacff68	0.3378861
82	0xbe93a455	-0.28836313
83	0x3f10a4d4	0.5650151
84	0xbcbac5d5	-0.022799412
85	0xbf02ebcb	-0.5114104
86	0x3ed4aa05	0.41535965
87	0x3d6687be	0.056281798
88	0x3e2ceba1	0.1688676
89	0x3ea39ffd	0.31958
90	0xbf32753a	-0.69710124
91	0x3dc7531c	0.09732649
92	0xbee71cb7	-0.45139095
93	0x3eddf8c4	0.43353856
94	0xbd27ab4d	-0.04093485
95	0xbe9c526e	-0.3053164
96	0xbe405889	-0.18783773
97	0x3f329a82	0.6976701
98	0xbc09043e	-0.008362828
99	0x3d8756c4	0.06608346
100	0x3e82d5e9	0.25553825
101	0x3e986d05	0.29770675
102	0x3ec00a2a	0.37507755
103	0xbedccbc1	-0.43124202
104	0xbdab0cda	-0.083520606
105	0xbe04df83	-0.12975888
106	0xbf1c8cef	-0.6115255
107	0x3edd6174	0.43238413
108	0xbc923fb5	-0.017852644
109	0x3f35e03d	0.71045285
110	0x3f59844e	0.84967506
111	0xbe9eb8a5	-0.31000248
112	0x3eb3b8d1	0.3510194
113	0xbf4fb5d1	-0.81136805
114	0x3f5207bc	0.8204305
115	0x3e05a9e9	0.13053097
116	0x3e4185f7	0.1889876
117	0xbf0354a2	-0.51301014
118	0xbdaa6a47	-0.08321052
119	0xbe9d6656	-0.3074214
120	0xbf1e77ff	-0.6190185
121	0x3f8d95b6	1.1061313
122	0x3e668638	0.22512138
123	0x3e2534bd	0.161334
124	0x3c20a774	0.009805549
125	0xbfbd60d3	-1.4795173
126	0xbfbf90e1	-1.4966089
127	0xbfece93c	-1.8508677
128	0x3dcb5d83	0.09929945
129	0xbe93ee5d	-0.28892794
130	0xbf7855dd	-0.97006017
131	0xbfee3c36	-1.8612125
132	0xbff87702	-1.9411318
133	0xbfe170e3	-1.7612575
134	0xbf4d2272	-0.80130684
135	0x3eb8b248	0.36073518
136	0xbfc21b65	-1.516461
137	0xc004bcaa	-2.0740151
138	0xbfbb7da8	-1.4647722
139	0xbf23c25c	-0.63968444
140	0x3f82ce51	1.0219213
141	0xbf832e2e	-1.0248468
142	0xc006807f	-2.1015928
143	0xbf04da91	-0.51896006
144	0xbe14b0c4	-0.14520556
145	0x3ee6d0d7	0.45081207
146	0xbe35bcf5	-0.17747863
147	0xbec9a46e	-0.39383262
148	0x3eff7e33	0.4990097
149	0xbf5a23cf	-0.8521089
150	0xbf3da34e	-0.7407731
151	0x3ec99494	0.3937117
152	0x3ec6152c	0.38688028
153	0xbc803d42	-0.01565421
154	0xbee6f26c	-0.45106828
155	0xbdf22190	-0.11822808
156	0xbe99e6a9	-0.30058792
157	0xbe3b4984	-0.18289763
158	0xbd96d511	-0.07364858
159	0xbee94373	-0.45559272
160	0x3ef44d51	0.47715238
161	0xbd8d922b	-0.06912645
162	0xbeaa6427	-0.33279535
163	0x3c672be3	0.0141095845
164	0x3f085124	0.5324881
165	0x3e85a639	0.2610338
166	0x3ea2f228	0.31825376
167	0x3e840013	0.25781307
168	0xbe289d69	-0.16466297
169	0xbeb12632	-0.34599453
170	0xbedcbdd9	-0.43113592
171	0x3ec2b187	0.38026068
172	0xbe112437	-0.14173971
173	0x3e1bb468	0.15205538
174	0xbe1d05c6	-0.15334234
175	0xbf6a39c8	-0.9149442
176	0xbf8fcb94	-1.1234002
177	0xbf983455	-1.189097
178	0xbeddb29c	-0.4330033
179	0xbe40bb06	-0.18821344
180	0xbe5795ea	-0.21053281
181	0xbfa00f95	-1.2504755
182	0xbff7b194	-1.9351068
183	0xc00a43f7	-2.1603982
184	0xbf89e70a	-1.0773633
185	0xbf806cc7	-1.0033196
186	0xbf8dcc64	-1.1078
187	0xbfe816c6	-1.813195
188	0xbfd365fe	-1.65155
189	0xbfd2b026	-1.6460006
190	0x3d1780e9	0.036988173
191	0xbf6b8557	-0.92000335
192	0xbfe44947	-1.7834862
193	0xbfa5961b	-1.2936434
194	0x3e2a94ac	0.16658276
195	0x3d17a063	0.03701819
196	0xbebda3f8	-0.3703916
197	0x3ecbbe80	0.39793777
198	0x3e45c67c	0.19313997
199	0xbe8563ac	-0.26052606
200	0x3ebd77b4	0.3700539
201	0xbd78118b	-0.060563605
202	0x3f2c39cd	0.67275697
203	0xbe37de5a	-0.17955914
204	0x3de53709	0.11192138
205	0x3e720317	0.23633991
206	0xbb7279df	-0.003699891
207	0xbeb9b8dd	-0.36273852
208	0xbebbc802	-0.3667603
209	0x3efa2c5c	0.4886197
210	0xbd03943d	-0.032123793
211	0xbf0d9857	-0.5531058
212	0xbed8cd06	-0.4234392
213	0xbc7e276f	-0.015512331
214	0x3cf66c93	0.03008107
215	0xbed45ce3	-0.41477117
216	0xbe3f98fd	-0.18710704
217	0x3e470303	0.19434743
218	0x3b25416b	0.0025215994
219	0x3ef23747	0.47307798
220	0x3d554d10	0.052075446
221	0x3e889b36	0.26680917
222	0x3e27894c	0.16360968
223	0x3eb03587	0.34415838
224	0x3f4ae8a8	0.79261255
225	0xbf36bdbb	-0.71383256
226	0x3dd3c2ae	0.103398666
227	0xbf6d3e82	-0.92673504
228	0xbebc922c	-0.3683027
229	0xbe5974b3	-0.21235923
230	0x3d076236	0.033052646
231	0xbe65a00f	-0.22424339
232	0x3bf56997	0.007489394
233	0xbe5d3ebc	-0.21605963
234	0xbd2c727d	-0.042101372
235	0xbe7f86c4	-0.24953753
236	0x3ea0f480	0.3143654
237	0xbe173f03	-0.14770131
238	0xbf07bfab	-0.5302684
239	0x3e57c29d	0.21070333
240	0x3ec62d15	0.3870627
241	0xbe69c840	-0.22830296
242	0xbe03bfeb	-0.1286618
243	0xbd782001	-0.060577396
244	0x3f3dd8b0	0.74158764
245	0x3ecdfe62	0.4023314
246	0x3f8a641b	1.08118
247	0x3f21feee	0.63279617
248	0x3e9178a5	0.28412357
249	0xbf03ab1e	-0.5143298
250	0xbdbba3fd	-0.09162138
251	0xbd4f983d	-0.050682295
252	0xbd40f7da	-0.04711137
253	0xbeb4d146	-0.35315913
254	0x3eed3b11	0.46334127
255	0xbecfd845	-0.40594688

conv2.bias f4 [16]
0	0x408b519f	4.3537135
1	0x4072af9d	3.7919686
2	0xc039c1c8	-2.9024525
3	0xc01fd04e	-2.497089
4	0xbfad6f93	-1.3549675
5	0xbf4bcebd	-0.7961233
6	0x3dce404b	0.10070857
7	0x400518f0	2.079647
8	0xbf84e22d	-1.0381523
9	0xc0933c29	-4.601094
10	0x40142d29	2.3152564
11	0x3e808ffa	0.25109845
12	0xbffc853a	-1.9728158
13	0x3eb92cbd	0.36166945
14	0xbe10b476	-0.1413134
15	0xc080d276	-4.025691

fc1.weight f4 [120, 400]
0	0xbd7170cd	-0.058945466
1	0xbec81de5	-0.39085308
2	0xbe9aacd3	-0.3020998
3	0xbea71ca2	-0.32639033
4	0x3ed4d7fb	0.4157103
5	0xbec92f02	-0.39293677
6	0x3dbe458a	0.09290607
7	0xbdc2a8d3	-0.09504857
8	0x3f47a2e5	0.7798293
9	0x3f08f973	0.5350563
10	0xbe8e63ca	-0.27810508
11	0xbc95c707	-0.01828338
12	0xbdf526bb	-0.11970278
13	0xbe3ce719	-0.18447532
14	0xbc05ee3f	-0.008174478
15	0x3c703d54	0.014663059
16	0xbf1bcb94	-0.6085751
17	0xbe39f48e	-0.18159696
18	0xbf09b713	-0.53794974
19	0x3f15f876	0.58582246
20	0xbe0dc70e	-0.13845465
21	0xbebfa1cd	-0.37428132
22	0xbf4a101a	-0.7893082
23	0xbe150165	-0.14551313
24	0x3e8ccb8d	0.27499047
25	0x3eb03783	0.34417352
26	0x3e91a9cb	0.28449854
27	0x3e3f7a6f	0.18699048
28	0xbdf10e23	-0.117702745
29	0xbdc51311	-0.09622777
30	0x3dba33bf	0.09091901
31	0x3ec830f3	0.39099845
32	0xbed14658	-0.4087398
33	0x3e2dd5f9	0.16976155
34	0xbe8ae26d	-0.27125874
35	0xbf07aff9	-0.5300289
36	0xbe0e9eab	-0.13927715
37	0x3e2d2f1c	0.16912502
38	0x3e5e16e4	0.2168842
39	0xbdeb9456	-0.11502902
40	0x3c2ccf14	0.010547418
41	0xbee80ae2	-0.45320803
42	0xbe3a0fbf	-0.18170069
43	0x3d56ba9e	0.052424066
44	0xbe7abf53	-0.24487047
45	0x3ca493fd	0.020090098
46	0x3ef0e465	0.4704925
47	0xbecd593c	-0.40107143
48	0xbf7edd78	-0.99556684
49	0x3d8840b9	0.0665297
50	0xbf033610	-0.5125437
51	0xbd25b623	-0.040456902
52	0x3edd65f1	0.43241838
53	0xbe33a866	-0.17544708
54	0x3dc72fa4	0.097258836
55	0x3f11f611	0.5701609
56	0xbdb432c2	-0.08798744
57	0xbf2c2980	-0.67250824
58	0xbf093030	-0.53589153
59	0x3d994fdf	0.07485937
60	0xbe4e1d78	-0.20128429
61	0xbf238b7d	-0.6388472
62	0x3e52defa	0.20592871
63	0xbdd117fb	-0.10209652
64	0xbe3edffc	-0.18640131
65	0xbe477eeb	-0.19482009
66	0xbebcb2c5	-0.3685514
67	0x3e02ffe7	0.12792931
68	0x3be4a475	0.0069776126
69	0xbc0e343d	-0.008679447
70	0x3d75cc79	0.060009453
71	0xbe647131	-0.22308804
72	0x3b782cf0	0.0037868582
73	0x3d7e79ad	0.062127758
74	0xbe756e5c	-0.2396788
75	0x3c20d069	0.009815314
76	0x3de50086	0.111817405
77	0xbf00ce7d	-0.50315076
78	0xbe72163a	-0.23641291
79	0xbf104509	-0.5635534
80	0x3e8a7636	0.27043313
81	0xbdf9bb86	-0.121939704
82	0xbf16450a	-0.58699095
83	0x3da85eb4	0.08221188
84	0x3c45ebbf	0.012080132
85	0xbe7433fa	-0.23847952
86	0x3eb7d37c	0.35903537
87	0xbeac8e97	-0.33702537
88	0xbef671bd	-0.4813365
89	0xbf0f1c71	-0.55902773
90	0x399584df	0.0002851849
91	0xbe24b77a	-0.16085616
92	0x3e755d50	0.23961377
93	0x3e8c98de	0.27460378
94	0x3d8e29d2	0.0694157
95	0xbec0d6b2	-0.376638
96	0x3f0929a9	0.53579193
97	0x3e9c8182	0.30567557
98	0x3e53a17c	0.2066707
99	0x3df9b23b	0.12192198
100	0xbe034716	-0.12820086
101	0x3e0fbaac	0.14036053
102	0x3e2372d3	0.1596177
103	0xbebe606b	-0.37182936
104	0xbebcddd9	-0.36888006
105	0xbe904ac7	-0.2818205
106	0xbe2d8e7f	-0.16948889
107	0xbd2c2db8	-0.04203579
108	0x3e892887	0.26788732
109	0x3c9eeb2f	0.019399254
110	0x3dc33e76	0.09533398
111	0xbe5eddfa	-0.21764365
112	0xbe186de2	-0.14885667
113	0x3d8a533b	0.06754156
114	0x3eefa320	0.46804142
115	0x3e5f8c7d	0.21830936
116	0xbdc03c28	-0.09386474
117	0x3e80faf4	0.25191462
118	0xbdb83b27	-0.089956574
119	0x3d9faa54	0.077961594
120	0xbcd96581	-0.026537659
121	0x3e86f300	0.2635727
122	0xbd4f3227	-0.05058494
123	0xbdee04b1	-0.116219886
124	0xbe264a04	-0.16239172
125	0x3f0ac555	0.54207355
126	0xbe70c7b4	-0.2351368
127	0x3df60b7e	0.12013911
128	0x3b91830e	0.0044406718
129	0x3dbf243e	0.093330845
130	0xbe5066f5	-0.20351775
131	0xbe9372fb	-0.2879866
132	0xbe817bf5	-0.25289884
133	0xbe89ca84	-0.2691232
134	0xbe8c4cc1	-0.2740231
135	0xbf61c92f	-0.88197607
136	0xbee3fe03	-0.44529733
137	0xbe37ce8c	-0.17949885
138	0xbe674416	-0.22584566
139	0xbce91978	-0.028454527
140	0xbf103bca	-0.5634123
141	0xbefc9893	-0.49335155
142	0xbddb4d18	-0.10708064
143	0xbeb16c2e	-0.34652847
144	0x3e4d0fdd	0.20025583
145	0xbec833dc	-0.39102066
146	0xbef1400d	-0.4711918
147	0xbdeeef33	-0.116667174
148	0x3ed38fb6	0.4132058
149	0x3e79870d	0.24367924
150	0x3db74983	0.08949568
151	0x3e2bd0a6	0.16778812
152	0x3cd5ce05	0.026099214
153	0xbf67a0a2	-0.9047948
154	0xbf16f003	-0.5895998
155	0x3d75828d	0.059938956
156	0x3ef9e2d3	0.48805866
157	0x3f29e17a	0.66359675
158	0xbec9864a	-0.39360267
159	0xbf23b5f6	-0.63949525
160	0xbed33e47	-0.4125845
161	0x3e15af23	0.1461759
162	0xbd087119	-0.033310983
163	0xbeb6eb09	-0.35726193
164	0x3c73af03	0.014873269
165	0xbe99b888	-0.300236
166	0x3e8da442	0.2766438
167	0x3e55e869	0.20889439
168	0xbf025b66	-0.5092071
169	0xbe8d60c0	-0.27612877
170	0xbf55ecbc	-0.83564353
171	0x3e68000b	0.22656266
172	0x3f141fb7	0.57860893
173	0xbebb8ec9	-0.36632374
174	0xbe172fb9	-0.14764298
175	0xbdbab752	-0.09116997
176	0x3ebfcf0d	0.37462655
177	0xbcc6c6c1	-0.024264695
178	0xbe87a784	-0.26494992
179	0xbe040ba4	-0.12895066
180	0xbd23d086	-0.039993785
181	0x3f142dcc	0.5788238
182	0x3d0a8710	0.033820212
183	0x3e74161a	0.23836556
184	0xbe87d883	-0.26532373
185	0x3f1b079b	0.6055848
186	0x3dbad6ca	0.09122999
187	0x3e4936f4	0.19649869
188	0xbd9950b0	-0.07486093
189	0xbe193197	-0.14960323
190	0x3d6b52e4	0.057452098
191	0xbd9e604d	-0.07733212
192	0x3e9bdc4e	0.30441517
193	0xbed68407	-0.41897604
194	0xbf2ed628	-0.68295527
195	0xbe25efd1	-0.16204764
196	0xbebcb664	-0.36857903
197	0xbe8a6c4b	-0.27035746
198	0xbbae1842	-0.0053129504
199	0xbec91dd2	-0.39280564
200	0xbec5237a	-0.3850363
201	0x3e653818	0.2238468
202	0xbd953697	-0.07285803
203	0x3c95a986	0.018269312
204	0xbf0da413	-0.5532848
205	0xbea72771	-0.3264728
206	0xbeb4a0aa	-0.35278827
207	0x3e32d1f9	0.1746291
208	0x3cd40f57	0.02588622
209	0x3e33e426	0.175675
210	0xbdea04a8	-0.11426669
211	0x3cf0458e	0.029330041
212	0xbe88560b	-0.26628146
213	0xbeacbf99	-0.33739927
214	0xbf0d4c13	-0.55194205
215	0x3e001c99	0.12510909
216	0xbed2beb7	-0.4116113
217	0xbe258191	-0.16162707
218	0x3e975aec	0.29561555
219	0xbf720c31	-0.9454985
220	0x3f21e9aa	0.6324717
221	0xbe0efb39	-0.13963021
222	0xbf15f17c	-0.585716
223	0x3df518ec	0.11967644
224	0xbe4a76cc	-0.1977188
225	0x3e18324f	0.14862941
226	0x3e6b0cfc	0.22954172
227	0x3e13818c	0.14404887
228	0xbc9482f7	-0.018128855
229	0x3d37d05a	0.044876434
230	0xbe2e327b	-0.17011444
231	0x3d852576	0.06501286
232	0xbe20402c	-0.1564948
233	0xbe67687c	-0.22598451
234	0xbdb6262f	-0.08894002
235	0x3e246df4	0.16057569
236	0xbef6fb18	-0.48238444
237	0xbe811c51	-0.25216916
238	0xbe460bd7	-0.19340454
239	0xbf2a8fd4	-0.66625714
240	0x3ed10f12	0.4083181
241	0x3d7a4fe6	0.061111353
242	0xbeadf8a7	-0.3397877
243	0xbef2912a	-0.47376376
244	0xbed37bec	-0.41305482
245	0x3e8405b0	0.2578559
246	0xbd2cad42	-0.04215742
247	0x3e4c633d	0.19959731
248	0x3e282b2f	0.16422723
249	0x3defdc04	0.117118865
250	0xbea7b295	-0.32753435
251	0x3d0751fe	0.03303718
252	0x3e4f8560	0.20265722
253	0x3ebd0631	0.36918786
254	0x3ec2a8cf	0.38019416
255	0x3db9c0bb	0.090699635

fc1.bias f4 [120]
0	0x3ee2a231	0.44264367
1	0xbe706780	-0.23476982
2	0xbf71a7b3	-0.94396514
3	0x3f3fada2	0.7487432
4	0x3d79395e	0.060845725
5	0xbdbf23f4	-0.093330294
6	0x3f3260bd	0.6967886
7	0xbf6c8388	-0.923882
8	0xbe75d983	-0.24008755
9	0x3ea46f9e	0.32116407
10	0xbea36372	-0.31911808
11	0x3e8203ad	0.2539343
12	0x3dfd49a3	0.12367561
13	0xbcbbda9d	-0.022931391
14	0xbe24b0b7	-0.16083036
15	0xbd7519f3	-0.0598392
16	0xbe465da1	-0.19371654
17	0xbe22aa91	-0.15885378
18	0x3eb3abab	0.3509191
19	0x3f1c3079	0.61011463
20	0xbe88d5a9	-0.2672551
21	0x3f18f88b	0.59754246
22	0x3ecddefc	0.40209186
23	0xbf0f4ee0	-0.5597973
24	0xbf1b0b8d	-0.605645
25	0x3ef1a76a	0.4719804
26	0x3e38b2b2	0.18036917
27	0x3ea7149a	0.32632905
28	0x3e8cd879	0.27508906
29	0x3d2ee7b9	0.042701457
30	0xbe8f7d69	-0.28025368
31	0x3b4f7d40	0.0031660348
32	0x3ea07ced	0.3134531
33	0x3e0314a4	0.12800843
34	0xbde5aac8	-0.112142146
35	0x3e94343f	0.2894611
36	0xbf33477f	-0.7003097
37	0xbf0151ff	-0.5051574
38	0xbee26732	-0.44219357
39	0xbe1f00d0	-0.15527654
40	0x3dad600d	0.08465586
41	0x3f6235d5	0.8836339
42	0x3ecb361c	0.3968972
43	0xbef84a6e	-0.48494285
44	0xbdd4546e	-0.10367666
45	0x3e760e36	0.24028859
46	0x3f8e3cd1	1.111231
47	0xbefa8605	-0.48930374
48	0xbecacd52	-0.39609772
49	0xbec09052	-0.37610108
50	0x3f0cbe50	0.54977894
51	0xbed8612c	-0.42261636
52	0xbeadea72	-0.3396793
53	0xbe43554b	-0.19075505
54	0x3ea5b386	0.32363528
55	0x3ea4ec31	0.3221145
56	0xbe74cb25	-0.23905618
57	0x3ef2eb4b	0.4744514
58	0x3e6e298a	0.23258033
59	0xbf1cf133	-0.6130554
60	0xbef8d2b8	-0.48598266
61	0x3e7c0042	0.24609473
62	0x3eb2541d	0.34829798
63	0xbeea6364	-0.45778954
64	0x3d58d466	0.052936934
65	0xbea5bdb9	-0.3237131
66	0xbdfdb136	-0.12387316
67	0xbed79f6b	-0.42113814
68	0xbf469c82	-0.7758256
69	0xbdb53d49	-0.0884958
70	0xbe6940d1	-0.22778632
71	0xbc4b18c3	-0.01239604
72	0xbd8fd48b	-0.07022961
73	0x3e7a555a	0.24446622
74	0xbf795bd2	-0.9740573
75	0x3ee455b5	0.4459664
76	0x3da31210	0.079624295
77	0x3fb324bd	1.3995587
78	0xbe8d8d84	-0.2764703
79	0x3ea91be0	0.3302908
80	0x3ec10c0f	0.37704512
81	0xbdf997d7	-0.12187164
82	0x3f5e0e04	0.86740136
83	0x3dde8f90	0.10867226
84	0xbed04484	-0.40677273
85	0x3ed7ade0	0.42124844
86	0xbed2f9b9	-0.41206148
87	0x3dcb92ac	0.09940085
88	0xbeeaf54a	-0.45890266
89	0xbeecda6b	-0.4626039
90	0x3f29d092	0.6633388
91	0xbebd7d6b	-0.3700975
92	0x3eea6d70	0.4578662
93	0x3e8f4739	0.27984026
94	0x3f3676c7	0.7127499
95	0xbed7eac1	-0.4217129
96	0xbef7f8c6	-0.48431987
97	0x3e1b0bf7	0.15141283
98	0xbeff4d8d	-0.49863854
99	0x3ebbe577	0.36698505
100	0x3efd64cc	0.49490964
101	0xbe545508	-0.20735562
102	0x3e49fbac	0.19724911
103	0x3ef52006	0.47875994
104	0x3e8cc3a1	0.27493003
105	0xbea1b9fa	-0.315872
106	0xbf0d426a	-0.55179465
107	0x3f365987	0.7123036
108	0xbd885738	-0.06657261
109	0xbe163d7c	-0.14671892
110	0xbf0e08d9	-0.5548225
111	0x3e850720	0.25981998
112	0x3d95f6c0	0.073224545
113	0xbec9b501	-0.39395908
114	0x3eb696c4	0.356619
115	0x3e010450	0.12599301
116	0xbe04bf58	-0.12963617
117	0x3f2f6300	0.68510437
118	0xbf864947	-1.0491112
119	0xbf159698	-0.5843291

fc2.weight f4 [84, 120]
0	0xbe8885d4	-0.26664603
1	0xbe088ebe	-0.13335702
2	0xbf0a802e	-0.54101837
3	0x3c619974	0.013769496
4	0x3e9e07c0	0.30865288
5	0xbe39b0fb	-0.18133919
6	0xbcf32e72	-0.029685233
7	0xbe6d3db5	-0.2316807
8	0xbe4ec097	-0.20190655
9	0xbdf18b59	-0.117941566
10	0xbc2fc784	-0.010728721
11	0xbec1251c	-0.37723625
12	0xbeee336d	-0.4652361
13	0xbed4faaf	-0.41597506
14	0xbe4983bf	-0.19679163
15	0x3ead1bea	0.3381036
16	0xbe3cacb9	-0.18425263
17	0x3e12bfb4	0.14330941
18	0xbd963e61	-0.073361166
19	0xbe8c1728	-0.27361417
20	0x3ebb8927	0.36628076
21	0xbceb0cec	-0.028692685
22	0x3e2e0548	0.16994202
23	0xbe4efa0e	-0.20212576
24	0x3e877bbb	0.26461586
25	0x3c803c60	0.015653789
26	0xbe051922	-0.12997869
27	0xbd359290	-0.044329226
28	0xbdf68827	-0.12037688
29	0xbda13815	-0.07872025
30	0xbd3336b2	-0.043753333
31	0xbe059173	-0.13043766
32	0xbed91dda	-0.42405587
33	0xbbe70b54	-0.007050911
34	0xbdaad84f	-0.08342039
35	0xbe8a13a9	-0.26968125
36	0xbda9bc5f	-0.08287882
37	0x3d10e022	0.03537
38	0xbeae4bf3	-0.3404232
39	0xbec2e531	-0.38065484
40	0x3e508703	0.20364003
41	0x3b682ce4	0.0035427148
42	0xbea170ee	-0.3153147
43	0xbefc45f3	-0.49272117
44	0xbf1d749f	-0.61506075
45	0xbe4b3093	-0.19842748
46	0xbdcc29ae	-0.09968887
47	0x3ea2b869	0.3178132
48	0x3d5c4bae	0.05378311
49	0xbe866c92	-0.26254708
50	0xbea9f70b	-0.3319629
51	0xbdbe5e42	-0.09295322
52	0x3c9cd36b	0.01914378
53	0xbe50d7c0	-0.20394802
54	0xbdb62ecf	-0.08895647
55	0xbe06de36	-0.13170704
56	0x3d53d1f4	0.0517139
57	0xbe8ec7aa	-0.27886707
58	0xbf5372f1	-0.8259726
59	0xbeb87916	-0.3602988
60	0xbf03f802	-0.51550305
61	0x3c83639d	0.01603871
62	0xbea4026d	-0.320331
63	0xbe2d5a80	-0.16929054
64	0x3d28e34d	0.041232396
65	0xbdea74cf	-0.11448061
66	0x3e8650bf	0.2623348
67	0x3d9b74f6	0.07590668
68	0xbf001091	-0.5002528
69	0x3de30789	0.110854216
70	0x3d8687d9	0.0656888
71	0xbed30ce1	-0.41220763
72	0x3e83932e	0.25698227
73	0xbd9d07b2	-0.076674834
74	0xbe05263b	-0.13002865
75	0xbe2590c0	-0.16168499
76	0xbe8bd1a1	-0.27308372
77	0x3d955f65	0.07293586
78	0xbeab9d6c	-0.3351854
79	0x3d90008b	0.070313536
80	0x3d950bcf	0.07277643
81	0xbe0141c5	-0.12622745
82	0xbe9d38d4	-0.3070742
83	0x3c9929b5	0.018696645
84	0xbf41452a	-0.7549616
85	0x3cf20b92	0.029546533
86	0x3e30a096	0.17248759
87	0x3bb9e1ee	0.005672685
88	0x3dbb669b	0.0915043
89	0x3ec0dbf3	0.37667808
90	0xbcb3cf14	-0.021949328
91	0x3e26c63a	0.16286555
92	0x3e01792f	0.12643884
93	0xbe7b8fdc	-0.24566597
94	0xbd958538	-0.073008
95	0xbee7a709	-0.45244625
96	0xbd00fc83	-0.031490814
97	0xbf0efd15	-0.5585492
98	0xbeef0359	-0.46682242
99	0xbde13fd9	-0.10998506
100	0xbf219ca3	-0.63129634
101	0x3dc6f53f	0.09714746
102	0x3d6bd056	0.05757173
103	0xbdce4a8e	-0.10072814
104	0xbefb82bc	-0.4912318
105	0xbd97f26c	-0.07419285
106	0xbf17ac0e	-0.5924691
107	0x3e628c8c	0.22123927
108	0xbf160dee	-0.58615005
109	0xbf00ea66	-0.50357664
110	0xbed344c9	-0.41263416
111	0xbe30a2ff	-0.17249678
112	0x3d8e3413	0.06943526
113	0xbe89e92c	-0.2693571
114	0xbeac09e7	-0.33601305
115	0x3da911a9	0.082553215
116	0xbe66c646	-0.22536573
117	0xbe0fd74a	-0.1404697
118	0x3e413765	0.18868788
119	0xbdce9d32	-0.100885764
120	0xbdc186db	-0.0944955
121	0xbed301e6	-0.41212386
122	0xbf19d7d8	-0.60094976
123	0x3de25465	0.11051253
124	0x3e22b249	0.15888323
125	0x3d93c152	0.07214607
126	0x3b9377a5	0.0045003467
127	0xbed1337b	-0.4085959
128	0xbdb351bc	-0.08755824
129	0xbdb5d459	-0.08878393
130	0xbe3edf10	-0.18639779
131	0x3df18d41	0.1179452
132	0xbca31a05	-0.019909868
133	0xbebcc57f	-0.36869428
134	0xbf057b0c	-0.5214088
135	0xbd508bfb	-0.050914746
136	0xbe8a3135	-0.26990667
137	0xbf2f8c59	-0.6857353
138	0xbec36b75	-0.3816792
139	0x3e7ea2b3	0.24866752
140	0xbe2030c6	-0.15643606
141	0xbc7c6fa4	-0.015407477
142	0xbddea45a	-0.10871191
143	0xbdd99ac6	-0.10625224
144	0xbe73ff4f	-0.23827861
145	0x3d91cf54	0.07119623
146	0xbdf78c1e	-0.12087272
147	0xbe287cf4	-0.16453916
148	0x3dbb9344	0.09158948
149	0xbccdbd4e	-0.025114682
150	0xbf0996f8	-0.53745985
151	0x3c5530f1	0.013012157
152	0xbdac853a	-0.084238485
153	0x3c50b3df	0.012738197
154	0xbe30c138	-0.17261207
155	0x3d81293a	0.063066915
156	0xbf020145	-0.5078319
157	0xbe56c70d	-0.2097437
158	0xbef50228	-0.47853208
159	0xbe86fd24	-0.26365006
160	0x3d90ac7d	0.070641495
161	0xbe4c860a	-0.19973007
162	0xbe3ea0e1	-0.18616058
163	0xbe0b85c1	-0.13625242
164	0xbe977141	-0.29578593
165	0xbdf96a3c	-0.12178466
166	0xbbab8e6b	-0.0052354834
167	0x3dc805e8	0.097667515
168	0xbcc8f81c	-0.02453237
169	0x3dac08aa	0.0840009
170	0xbe2c604d	-0.16833611
171	0x3c4d586f	0.012533291
172	0x3da2931d	0.07938216
173	0xbe6528e5	-0.22378881
174	0xbd3bf9f0	-0.045892656
175	0xbc340bf7	-0.010989181
176	0xbd94cf0a	-0.07266052
177	0x3e551762	0.20809701
178	0x3dd7126f	0.10501563
179	0xbe8fb4b1	-0.28067544
180	0x3d9996c6	0.07499461
181	0xbf017b07	-0.5057835
182	0xbdbdfbcf	-0.09276544
183	0xbe1e34f7	-0.15449892
184	0xbebb54e9	-0.3658822
185	0xbe5485d9	-0.20754184
186	0x3ddd015d	0.10791276
187	0xbe760efc	-0.24029154
188	0xbeac3f20	-0.3364191
189	0xbd094bc6	-0.03351953
190	0xbcefa04b	-0.029251238
191	0xbe4035e2	-0.18770555
192	0xbce994dc	-0.028513364
193	0x3d9605c9	0.07325322
194	0xbf0f8b8d	-0.5607231
195	0xbe876d94	-0.2645079
196	0xbe9e2f42	-0.3089543
197	0x3e113f38	0.14184272
198	0xbeef7e99	-0.46776274
199	0x3d808598	0.06275481
200	0xbec67385	-0.3876001
201	0xbe2af821	-0.16696216
202	0x3dd9cd5c	0.10634872
203	0xbd5f7d4c	-0.05456285
204	0xbe55fa82	-0.20896342
205	0xbe1670c5	-0.14691456
206	0x3e35b8d3	0.17746286
207	0xbef8dc46	-0.48605555
208	0xbe81bd3d	-0.2533969
209	0x3d70cb01	0.05878735
210	0xbdf1159f	-0.11771702
211	0xbe454ece	-0.19268343
212	0xbace45d6	-0.0015737365
213	0xbe3a3ebb	-0.18187992
214	0x3e47db94	0.19517356
215	0xbe81b71d	-0.25335017
216	0xbe3bfa50	-0.18357205
217	0x3e6d4955	0.23172505
218	0xbdd93947	-0.10606628
219	0x3d5900c1	0.052979235
220	0x3df11aca	0.11772688
221	0xbf13fe4f	-0.5780992
222	0x3ba80906	0.005128029
223	0xbe73107f	-0.23736762
224	0xbec5722e	-0.38563675
225	0x3d916946	0.071001574
226	0xbd791817	-0.06081399
227	0xbc2b47a3	-0.010454091
228	0xbc16428f	-0.009171142
229	0xbe10bef4	-0.14135343
230	0xbf151bd6	-0.582456
231	0x3cc799ea	0.024365384
232	0x3c0df8ac	0.008665245
233	0xbf13ac03	-0.57684344
234	0xbd715210	-0.05891615
235	0xbd7a8ccf	-0.06116944
236	0xbe93426e	-0.2876162
237	0xbd44d9d3	-0.048059296
238	0xbf14b7dd	-0.58093053
239	0xbed0d2e7	-0.40785906
240	0x3e28454a	0.16432682
241	0x3d972482	0.0738001
242	0x3dc24db7	0.09487479
243	0x3bf94859	0.0076075015
244	0x3e1ada36	0.15122303
245	0xbeac0820	-0.3359995
246	0xbf1dec45	-0.61688644
247	0xbddbefb2	-0.10739078
248	0xbe23a697	-0.15981518
249	0xbebfea75	-0.37483564
250	0xbcae64d4	-0.021288313
251	0xbe3af904	-0.18259054
252	0x3d835bdd	0.06414006
253	0xbd2bfc6c	-0.041988775
254	0xbe8f3916	-0.2797324
255	0xbdd372e7	-0.1032465

fc2.bias f4 [84]
0	0xbec02e31	-0.3753524
1	0x3fffcf37	1.9985112
2	0xbe2d2120	-0.16907167
3	0x3f430f2a	0.76195014
4	0x3f3e34bb	0.7429921
5	0xbf7a0f62	-0.9767972
6	0xbe2c6e0b	-0.16838853
7	0xbe74505b	-0.23858778
8	0xbe84921e	-0.2589273
9	0x3fa79a3f	1.3093947
10	0xbe85b867	-0.2611725
11	0xbeb60992	-0.35554177
12	0xbeba4b3e	-0.3638553
13	0xbddd6cc4	-0.10811761
14	0x3f164e10	0.58712864
15	0xbea7361e	-0.32658476
16	0xbf06e186	-0.5268787
17	0xbf8c3ee4	-1.0956693
18	0xbf125876	-0.5716623
19	0x4007f2c7	2.124193
20	0xbf22dfe5	-0.63622886
21	0xbef55ee6	-0.47923964
22	0xbea77e41	-0.32713512
23	0xbf1a3ef6	-0.6025232
24	0x3e82ca2d	0.25544873
25	0xbed19b7c	-0.40938938
26	0x3e9cb98e	0.30610317
27	0xbc22fe3a	-0.009948308
28	0x3e68a651	0.22719695
29	0xbf3d2a84	-0.73893
30	0x3e81550c	0.25260198
31	0x3fdde395	1.7335078
32	0xbf04f7ed	-0.51940805
33	0x3e7fbc44	0.24974161
34	0xbea81b24	-0.32833207
35	0xbf82c6fb	-1.0216974
36	0xbe85a707	-0.26103994
37	0x3fbe0c3e	1.4847486
38	0xbf338794	-0.7012875
39	0x3d29237d	0.04129361
40	0xbecb3ca0	-0.3969469
41	0x3f8c5a5e	1.0965078
42	0x3e578d79	0.21050061
43	0x3f9c5bbf	1.2215499
44	0xbf090797	-0.53527206
45	0xbf3b9a2c	-0.7328212
46	0xbefc3e04	-0.49266064
47	0xbdbb5985	-0.09147934
48	0x3e94e129	0.29078034
49	0xbe7ffd36	-0.24998936
50	0x3e30c44b	0.1726238
51	0x3f49f9ad	0.788966
52	0x3f0500c9	0.51954323
53	0x40299c0a	2.6501489
54	0xbf505876	-0.8138498
55	0xbee366ef	-0.4441447
56	0x3efb2d57	0.4905803
57	0x3ed1bf12	0.40966088
58	0xbeaad242	-0.3336354
59	0x3f0b55c4	0.5442774
60	0xbed96c6a	-0.42465526
61	0x3ed9d140	0.42542458
62	0xbf50f07e	-0.8161696
63	0xbf2fb8d7	-0.6864142
64	0xbdaad194	-0.08340755
65	0x3ebe539a	0.37173158
66	0x4019ddac	2.4041548
67	0xbd9805c3	-0.07422974
68	0x3eedcea5	0.4644672
69	0xbe3e4931	-0.18582608
70	0xbf824404	-1.0177007
71	0xbd8ba6a1	-0.06818891
72	0x3f8f7fda	1.1210892
73	0xbf450130	-0.76954937
74	0xbe893440	-0.26797676
75	0x3e7f5da0	0.24938059
76	0xbece28ae	-0.4026541
77	0x3e8470df	0.25867364
78	0x3fb35de8	1.4013033
79	0xbe801466	-0.25015563
80	0xbf314bd1	-0.6925631
81	0x3e3aafc7	0.18231116
82	0x3f167380	0.5876999
83	0x3b26f590	0.0025475956

fc3.weight f4 [10, 84]
0	0xbe039789	-0.12850775
1	0xbbaaa7c7	-0.005207989
2	0xbc9dfbe8	-0.019285157
3	0x3daf45c5	0.08558229
4	0xbdfdeb8c	-0.123984426
5	0xbcccd4f8	-0.025003895
6	0xbdbf2dce	-0.093349084
7	0x3e31e82a	0.1737372
8	0x3d057d56	0.032590233
9	0xbd6d6f05	-0.057967205
10	0x3d4a4fe2	0.04939259
11	0xbd1e8f96	-0.038711153
12	0xbd912143	-0.07086422
13	0x3df487f1	0.11939991
14	0xbd976114	-0.07391563
15	0x3e4dee40	0.20110416
16	0x3e08cad9	0.1335863
17	0x3e72f8c8	0.23727715
18	0x3e49c700	0.19704819
19	0xbcaf5501	-0.021402838
20	0xbcf6140c	-0.030038856
21	0x3c8a6b1f	0.016896782
22	0xbc7621c3	-0.015022698
23	0xbd2b8f74	-0.041884854
24	0x3bd2647a	0.006420669
25	0x3cde4fc4	0.027137645
26	0x3e325410	0.1741488
27	0xbd2ad7f5	-0.04170986
28	0xbd45698d	-0.048196364
29	0x3df40943	0.11915829
30	0xbdd99163	-0.106234334
31	0xbe32ce6c	-0.17461556
32	0x3cf999b6	0.030468803
33	0x3e332716	0.17495379
34	0xb9408098	-0.00018358452
35	0x3bf4cfc3	0.007471056
36	0xbe07152d	-0.13191672
37	0xbda55a86	-0.080739066
38	0x3e54b011	0.20770289
39	0xbe23ef98	-0.16009367
40	0xbddea60f	-0.10871517
41	0xbd553022	-0.052047856
42	0xbdf2d451	-0.118569024
43	0x3d726bc8	0.05918482
44	0x3e1dbe2e	0.15404579
45	0xbb64f900	-0.0034938455
46	0x3e22102c	0.15826482
47	0x3e9c34d3	0.30509052
48	0xbd37b19d	-0.04484712
49	0x3e255a7d	0.161478
50	0x3d6ee228	0.05832115
51	0xbe4ae067	-0.19812165
52	0xbcf32e43	-0.029685145
53	0xbd85ea8b	-0.06538876
54	0xbda53555	-0.08066813
55	0x3d265ab5	0.04061385
56	0xbe0ac73b	-0.13552563
57	0x3e371ab9	0.17881288
58	0xbd259005	-0.04042055
59	0xbe222048	-0.15832627
60	0x3d83e2d7	0.06439751
61	0xbc4f6041	-0.012657226
62	0xbc5b908f	-0.013401165
63	0x3c605f96	0.013694664
64	0x3d0130cd	0.03154068
65	0xbbbc8a42	-0.0057537863
66	0xbdb0aa2a	-0.08626206
67	0x3cdcee7a	0.026969183
68	0xbd74038f	-0.059573706
69	0x3d2c67f7	0.042091336
70	0x3e54b4de	0.2077212
71	0x3db37072	0.087616816
72	0xbdc80e64	-0.0976837
73	0x3daab0b7	0.08334487
74	0x3e0e3f4f	0.13891338
75	0x3d8d2078	0.068909585
76	0x3e7a70b7	0.2445706
77	0x3e2abe47	0.16674148
78	0xbd2c024a	-0.04199437
79	0x3c757eee	0.014983876
80	0xbc960a71	-0.018315526
81	0xbe131fa1	-0.14367534
82	0xbe77dbab	-0.2420489
83	0x3c99bc2e	0.018766489
84	0xbd98cb52	-0.07460655
85	0xbdadf674	-0.08494273
86	0xbd97f223	-0.07419231
87	0x3dadbd1e	0.08483337
88	0xbd2646cf	-0.040594872
89	0x3e3a2495	0.18178017
90	0xbca768c3	-0.020435696
91	0xbcdcb2b5	-0.026940683
92	0x3d211290	0.039324343
93	0xbd42e7ba	-0.047584273
94	0xbd3376d6	-0.043814503
95	0x3c913403	0.017724996
96	0x3d54c9f8	0.051950425
97	0xbd4ac1ab	-0.049501102
98	0x3d6b2fee	0.057418756
99	0xbe06be1f	-0.13158463
100	0x3db7e9bb	0.089801274
101	0x3d70bcdd	0.058773864
102	0xbce69b71	-0.028150292
103	0xbe393c21	-0.18089344
104	0xbd9f3fab	-0.077758156
105	0x3dd74e77	0.10513013
106	0xbe2157c2	-0.15756133
107	0x3e54a245	0.20765026
108	0xbda7aea0	-0.08187604
109	0x3df6e3dd	0.1205518
110	0x3d8fa52d	0.07013927
111	0x3e1ea47c	0.15492433
112	0xbdb45d35	-0.0880684
113	0x3d4508bf	0.048104044
114	0xbdc6a004	-0.09698489
115	0x3c4228ec	0.011850577
116	0xbde14043	-0.10998585
117	0x3e487497	0.19575725
118	0xbd2dbeec	-0.042418405
119	0xbdc24f9d	-0.09487841
120	0xbd937961	-0.072008856
121	0xbe79e710	-0.2440455
122	0x3e05fe55	0.13085301
123	0x3cff2b87	0.031148685
124	0x3e1e2bac	0.15446347
125	0xbd6d994a	-0.058007516
126	0xbe30c6c9	-0.1726333
127	0xbd7adf04	-0.06124784
128	0x3c01bdd8	0.007918797
129	0xbde30fe7	-0.110870175
130	0xbd9dfd58	-0.07714337
131	0xbd182573	-0.03714509
132	0xbe2d9f6d	-0.16955347
133	0x3e2e6a18	0.17032659
134	0x3e7b967f	0.24569128
135	0xbe6ff7f6	-0.23434433
136	0xbd81e584	-0.06342605
137	0xbe44948e	-0.19197294
138	0x3e138329	0.14405502
139	0xbe300ee5	-0.17193182
140	0xbe7c2b3c	-0.24625868
141	0xbe329136	-0.17438206
142	0x3e45e825	0.19326837
143	0x3d91ddd2	0.07122387
144	0x3d120332	0.03564758
145	0xbe0a258e	-0.13490888
146	0x3e05002b	0.12988345
147	0x3cbfb221	0.023400368
148	0x3d0c4778	0.034247845
149	0xbd82ee12	-0.063930646
150	0xbd85ed39	-0.06539387
151	0x3e82f7d5	0.25579706
152	0xbd9316a6	-0.07182054
153	0x3e1ed807	0.15512095
154	0xbdc5ba76	-0.09654705
155	0xbe1f0a01	-0.1553116
156	0xbd907503	-0.07053568
157	0xbe1b7ebf	-0.15185069
158	0xbd9deb1e	-0.07710861
159	0xbc6a7397	-0.014309785
160	0xbe3fc1e8	-0.18726313
161	0x3de4f6ce	0.11179887
162	0xbb937f25	-0.004501241
163	0x3e46462d	0.19362707
164	0xbe24402d	-0.16040106
165	0xbe4c4331	-0.19947506
166	0xbe4c1afd	-0.1993217
167	0xbe101e7a	-0.14074126
168	0x3e54bc70	0.20775008
169	0x3e0a94da	0.13533345
170	0xbceabbd2	-0.028654013
171	0xbd57795b	-0.052605968
172	0x3d10201c	0.035186872
173	0xbc1b3197	-0.009472272
174	0x3d166685	0.036718864
175	0xbd922e54	-0.07137743
176	0x3d955567	0.0729168
177	0x3e31c475	0.17360099
178	0xbbfcae9d	-0.007711245
179	0x3dace131	0.08441389
180	0xbd84d4eb	-0.064859234
181	0xbe426477	-0.18983637
182	0x3cd7d628	0.026347235
183	0x3e4bc1f1	0.19898202
184	0x3d4ce9d3	0.05002768
185	0xbe08428d	-0.13306637
186	0x3e54d059	0.20782603
187	0x3d901824	0.070358545
188	0x3e20eae6	0.15714607
189	0x3da387a1	0.079848535
190	0x3e85186e	0.259952
191	0xbda9b78f	-0.08286964
192	0x3d3f87f1	0.046760503
193	0xbd88e3ef	-0.066841
194	0x3cb35db7	0.021895273
195	0xbdd5c7f2	-0.10438527
196	0x3e0f6f23	0.14007239
197	0xbc7fe725	-0.015619074
198	0xbc42ce62	-0.011890026
199	0xbd033904	-0.032036796
200	0x3b179fef	0.00231361
201	0x3cc3df86	0.023910295
202	0x3e4d4737	0.20046698
203	0x3ce012f4	0.027352788
204	0x3d6fc8d2	0.058541127
205	0x3db37c37	0.087639265
206	0xbcc53f1b	-0.024077943
207	0x3daf94db	0.08573314
208	0x3df2606b	0.118347965
209	0x3c27e098	0.010246418
210	0xbd8aa4e2	-0.0676973
211	0xbddabc19	-0.10680408
212	0xbd1f093b	-0.038827162
213	0xbcc8d07a	-0.024513472
214	0xbbf4dcd4	-0.007472614
215	0x3d314ab0	0.04328412
216	0x3d16840e	0.03674703
217	0x3e14e8fc	0.14542001
218	0xbd5bd791	-0.053672377
219	0x3dfef17c	0.12448403
220	0x3d3f57d3	0.046714615
221	0x3e4686d1	0.19387366
222	0x3bccb992	0.0062477076
223	0x3e4aa4d3	0.19789438
224	0x3ddf040d	0.108894445
225	0xbd8a4ab8	-0.06752533
226	0x3dd100b8	0.10205215
227	0x3e06e9b4	0.13175088
228	0x3ddf2aad	0.10896812
229	0x3e44f559	0.19234218
230	0x3d716075	0.05892988
231	0xbdd704b0	-0.10498941
232	0x3d446fed	0.047958303
233	0xbd903247	-0.0704084
234	0x3dba61b8	0.091006696
235	0x3c9778e8	0.01849027
236	0xbb70066d	-0.0036624924
237	0xbe04febb	-0.12987797
238	0x3e8aafd1	0.27087262
239	0x3e2820d3	0.16418771
240	0x3b8771e0	0.004133448
241	0x3e0b4204	0.13599402
242	0xbc99f27b	-0.018792382
243	0x3b2f418a	0.0026741945
244	0xbc81ad11	-0.015829595
245	0x3dfa887b	0.12233063
246	0xbdf8de6b	-0.12151798
247	0xbd31ca70	-0.04340595
248	0x3ea146a2	0.314992
249	0xbd9fbdc7	-0.07799869
250	0xbd55a2ba	-0.05215714
251	0x3c94402d	0.018097008
252	0x3db6365b	0.08897086
253	0xbd2944bb	-0.041325312
254	0x3e7bc26d	0.24585886
255	0xbdd35f30	-0.1032089

fc3.bias f4 [10]
0	0xbeb521a4	-0.35377228
1	0xbfa4a12d	-1.2861687
2	0xbd702bf2	-0.05863566
3	0x3f8a2c7f	1.0794829
4	0x3f1d7381	0.6150437
5	0x3f067187	0.5251698
6	0x3dbca5b2	0.092112914
7	0xbe91da9f	-0.28487107
8	0x3c71c362	0.014756056
9	0xbed127ca	-0.4085067
